PINN/lib/weights/PINN_Model_2D_1D_1source.pth (torch, 38091 bytes, 7 tensors)

layer1.weight f4 [64, 2]
00000000: a650 f83e f735 28bf 0409 253f 5a8b a73e
00000010: ce1d b93d 5750 16bf cc05 05bf d160 c4be
00000020: 24bd 32bf e560 683f 72c2 f5be 82d0 12bf
00000030: a906 53bf fdae 48bf 6f0f a439 4649 25bf
00000040: 1e55 94be e58e 283f ec4f fd3e 908f 483f
00000050: 6ba8 25bf 98f1 16bf c882 62be c77b 1d3f
00000060: 2719 953e 58fa 03bf 6fe7 0b3f f160 233f
00000070: 9731 d6bd a3df 393f 0242 46bf 73f5 62bf
00000080: 9a66 c7bd e8d4 333f 3d0d 143c 536c 1d3f
00000090: 7e07 183f d61d 253f 21be eebe 17d0 16be
000000a0: 1f0c d93e 3f40 6dbf 5af9 da3e b29e ee3e
000000b0: 7d3d 013f 908f 2d3f bbb5 a13e 705a 033e
000000c0: ca12 5e3f 4073 4b3f ab48 bdbe 2329 1a3e
000000d0: c4b0 26bf 02c5 493f 3441 313f 685a c03e
000000e0: ef22 a9bc 992c 28bf 5eb4 f03e ebb0 0fbe
000000f0: 0ca7 0e3f 7536 4e3f 7aeb f5be dd4e 61bf
00000100: d14e 303e a6a2 213f 1334 9cbe 81d3 303f
00000110: 07b6 05bd 1ff3 34bd 537f e13e a007 4dbf
00000120: 1c39 543e 93f3 003f f041 5c3f 29ec 4e3f
00000130: 1695 ce3e acaa 47bf 28d2 4f3f 7a7e 433e
00000140: e5d4 f23d ac74 a8be c585 f83e 7567 7fbf
00000150: 6e04 fdbe 2877 263e ab05 c5be d9a1 83bf
00000160: f733 2ebf 862a 493f f264 0a3f b69e 1c3f
00000170: 4b75 b73e 2ce1 f1be af7e 17bf 2153 a23e
00000180: 9ec1 963e 2a92 44bf 512e 0e3f 5a01 2ebf
00000190: cbdd 46bf 204b 793f d032 7bbe 5d67 43bf
000001a0: 6a18 b5be 7997 08bf 0102 a2be a3da f33d
000001b0: 2319 b2be 1e0c 553e 4b22 613f 5b72 de3e
000001c0: d4bf ba3e 5170 4abf 7377 1abf 1635 383f
000001d0: b480 933e d216 17bf 95be 09bf ad9a cf3c
000001e0: b705 263f 7408 4e3f 85c1 15bf 4328 60bf
000001f0: 823e 253f 8126 5abf bad2 37bf 8567 31bf
0.4849903 -0.65707344 0.6446688 0.32723504 0.09038888 -0.5871634 -0.5196197 -0.38355115
-0.69819856 0.9077285 -0.47999913 -0.5734941 -0.8243204 -0.7839201 0.00031292017 -0.6456493
-0.2897119 0.6584304 0.49475038 0.7834406 -0.6471011 -0.5896239 -0.22120202 0.61516994
0.29120752 -0.5155387 0.54650015 0.63819796 -0.10458677 0.7260687 -0.7744447 -0.88655776
-0.097363666 0.70246744 0.009036359 0.61493415 0.5938643 0.6449865 -0.46629432 -0.14727817
0.4239206 -0.92676157 0.42768365 0.4660545 0.5048445 0.67797184 0.31583962 0.12827468
0.8674742 0.7947273 -0.36969504 0.15054755 -0.6511347 0.78816235 0.6924012 0.37568974
-0.02064654 -0.6569305 0.4701261 -0.14032333 0.55723643 0.80551845 -0.48031217 -0.8801096
0.17217566 0.63138807 -0.3050848 0.6907273 -0.032644298 -0.04417717 0.44042453 -0.8008976
0.2072491 0.50371665 0.8603811 0.808291 0.4034812 -0.779948 0.8118005 0.19091216
0.11857013 -0.32901514 0.48539558 -0.9976724 -0.49417442 0.16256392 -0.38480887 -1.0283767
-0.6804804 0.7858051 0.5406028 0.61179674 0.35831675 -0.47242105 -0.5917768 0.31704047
0.29444593 -0.7678553 0.55539423 -0.6797081 -0.7768218 0.97380257 -0.24531102 -0.76329595
-0.3537019 -0.5335613 -0.31642154 0.11906936 -0.34784803 0.20805404 0.8794295 0.4344662
0.36474478 -0.7907763 -0.60338515 0.71956 0.2880913 -0.59019196 -0.5380643 0.02534231
0.6485247 0.8048165 -0.5849841 -0.87561435 0.64548504 -0.85215 -0.7180592 -0.69298583

layer1.bias f4 [64]
00000000: 32ad f9bd a008 38bf 7323 2cbf 5f7d 22bf
00000010: 55cf ae3e 111c 47bf db85 d0bd f96f 583e
00000020: a530 1f3f d15b 22bf 0eb2 433f 4b83 3bbf
00000030: 131b d83e 7c02 81be 656d 2dbf 6f38 f53e
00000040: a2a8 283e 3460 44be 5394 803d f1f2 9a3e
00000050: efb5 9b3f 1000 3cbf f336 8f3e 371f 4f3c
00000060: 17e5 1ebe 0ba5 0d3d 86ab a63e a67f c2be
00000070: 124b 2d3d 628d 1fbf 8eab 55be 9072 2b3f
00000080: 600b 50be 0f0c 223f 8ef3 12bf 04b4 783e
00000090: 91c9 d2bd 7f02 b13d ac54 a5be 896b 4e3e
000000a0: a383 f63e 8d2c a2be 596d 38bd 4052 223f
000000b0: 453b b63e cf9d 2fbf e860 3a3f 7cb4 2f3f
000000c0: 8978 41be d65d 7cbe 993c 0c3f 4fb7 ca3e
000000d0: f5d8 303f cffa ecbe 4d0c dcbe 018e 46bd
000000e0: 02ff 753f feba b73e 039e 3a3e ebcd 7c3e
000000f0: 0bb0 c3bd f207 0b3e 6c75 9dbe 4878 b7be
-0.121912375 -0.7188816 -0.6724159 -0.6347255 0.34142557 -0.777772 -0.10181781 0.21136464
0.621836 -0.6342135 0.76443565 -0.7324721 0.42208156 -0.25197208 -0.6774505 0.47894618
0.16470578 -0.19177324 0.062782906 0.30263475 1.2164897 -0.73437595 0.2797161 0.01264172
-0.15517078 0.034581225 0.32552737 -0.37988013 0.04230792 -0.6232511 -0.20866224 0.66971684
-0.20316839 0.6329965 -0.57402885 0.2428742 -0.10292352 0.08643054 -0.32291162 0.20158209
0.48147306 -0.31674615 -0.045026157 0.63406754 0.35592094 -0.6860017 0.7280412 0.6863477
-0.18893637 -0.2464517 0.54779965 0.39592978 0.6908105 -0.46285102 -0.42978135 -0.04847527
0.96092236 0.3588485 0.18224339 0.24687926 -0.09555062 0.1357725 -0.30753648 -0.35833955

layer2.weight f4 [64, 64]
00000000: 98d3 bebd ba86 00bc af29 123c 96a2 a1bd
00000010: 88a4 48bd fe2a 23bd 29c1 23be 801b 2a3e
00000020: 323e 18be c137 38be e374 843d 7a57 fb3d
00000030: 449c 60bd d744 06be e7b4 2c3d dfec 8a3d
00000040: 6218 13be 2bb9 f0bd a74e 6fbd 4c40 d83c
00000050: 5b9b 8ebd 3fc1 62be 0b6f db3d f551 2ebe
00000060: 97c5 2ebd e0b4 c43d d624 9c3d 4124 c2bd
00000070: 2e47 1cbd 518a 2abd 0e4e 393d 1795 ebbc
00000080: cdb8 1d3c 9742 15be c355 273e 6b23 51bd
00000090: 52f2 813d 846a f73d acc2 06bd 2c42 ce3d
000000a0: 0416 5bbd 9c97 2e3d 9255 27bd 3d44 193e
000000b0: d2d7 5bbd 934b bdbd f56e bdbd 46f0 013e
000000c0: 8a22 3a3e 2601 79bd c1c9 8bbd 4929 9fbb
000000d0: d0ab 4d3e ca53 cc3d 45ca afbd c599 383d
000000e0: bf80 3cbc edc1 983d 395e 373d 0882 bb3b
000000f0: 520e e23d 635e 61bd cc8f 023e d41a 2ebc
00000100: d9b0 2f3c ad15 c63e fa1e 6d3d 6cb1 053e
00000110: acb5 4a3d 75f4 f63c 0d55 15be 5e33 f6bd
00000120: 8ea8 d93c 3a04 0f3f a305 14bf 756e 333e
00000130: a68b ccbc cefe e33d 2d51 033e 2244 05be
00000140: 7a07 d13d 113b 5d3e 097b 9ebd e50f 1abe
00000150: 0fcf 59bd ab37 f73e 2279 45bc b1e0 c53d
00000160: 8fe3 dc3b ec23 413b 5b92 6e3d fdde 263e
00000170: 2cd5 b0bd 7f9b ed3e c3a5 d73c 588a d4be
00000180: 456e 9e3e 7f3c 00be a0c1 16bd 250d fc3d
00000190: 7991 393e 5667 68bc fca1 a8bd e412 b73d
000001a0: 90cd 06be d400 ebbc 82dd 933a 1edf 80bf
000001b0: 619e 11be 4617 1c3f c948 64bd 953d c3be
000001c0: 6650 28be 76ed 1cbc 52bb 6abd ec6e 30bf
000001d0: 5e3b eebe ebe2 bcbd 002f bb3c 9a4a c63d
000001e0: f422 babd 373e cebd b3ff 91bd af76 0abe
000001f0: b059 273d e3d4 67bd 6c27 8f3d 91be 8a3d
00000200: 8bf2 033d e127 e9bd 6e0d d63d 90fe ccbc
00000210: da6f 4d3d 9bf2 08be 23ec 533d b4eb fabc
00000220: 18a4 fd3d 48e0 6ebd f481 203e 748f fe3d
00000230: be19 f4bb e045 e9bc e06c b3bd 90b0 e3bd
00000240: 61c6 7d3c 9d04 f93d 69ca 803d 0507 213e
00000250: 2631 5b3d f5db 6d3d 92d5 6cbd c298 e5bd
00000260: 1312 e83d 968b 123e 1327 6b3d 2726 e63a
00000270: 9c55 0a3d e8fc b1bd 3605 6f3d a5dc 423d
00000280: 4442 63bd ca61 023e 1a0d 073e 673c f93c
00000290: 7aac bb3d 43df bcbd 0bfd d7ba bc92 2a3d
000002a0: 7b3f f8bd ad8f 9ebd 13c1 29bd 4d70 31bd
000002b0: 5082 fe3d 2af2 293d 6316 da3d db69 333e
000002c0: 649d aebc f7d3 bebd 351b a1bd 1d36 d53d
000002d0: cda5 dfbd 894d dc3d 8d48 86bc 82ca b03c
000002e0: bef9 b73b 1874 a5bd ab62 c1bd 16d1 c63d
000002f0: f811 b4bd 664b fabd 9758 b13d b759 f8bd
00000300: 3104 2f3d e6ab 133f b993 ad3d e81c 9ebc
00000310: 2429 303a 9086 373e ff25 383b 2071 5bbe
00000320: 0ed9 e7bd abbc 863f 600b 59bf 51e8 2c3c
00000330: ae39 e7bd 8c35 a53e b43f cf3d d5e6 a5be
00000340: ada8 973d f4c7 123d 0125 c43d 29c7 bdbe
00000350: 231f da3c fa3a 2e3f 9b52 1dbe efe4 713e
00000360: d320 d23d 8f2f b2bd 7a35 253d 1d77 9e3e
00000370: 049a 80be 87b4 933e 1805 b23d 5b63 71bf
00000380: e4f3 e83e 0ead f2bc f65c e83d 1ed1 c0bd
00000390: 785a 8a3e af4e f8bd 987e b53d 5102 253d
000003a0: 9797 0ebe 798f 19be eb8a b7bc 894e a4bf
000003b0: 2274 c2bd cc4c 8a3f 74c8 d9bc dba1 2cbe
000003c0: 602e 1bbd 7576 e53c 3093 3b3d ee06 88bf
000003d0: 1bf2 29bf 7146 d9bd ec9e 1bbe 4d9a f23d
000003e0: 0951 28be 6c38 823d 6b63 283d 3ebd b2be
000003f0: 93f1 733c ba44 863c 4457 cc3d b0a5 dc3d
-0.09317702 -0.007844621 0.008921071 -0.07892339 -0.048985034 -0.039835922 -0.15991654 0.16612053
-0.14867476 -0.17990018 0.06467607 0.12272544 -0.054836527 -0.13112198 0.04216471 0.06783461
-0.1436477 -0.11754068 -0.058424618 0.026397847 -0.069632255 -0.2214403 0.10714539 -0.17023452
-0.042668905 0.09604812 0.076242134 -0.09479571 -0.03815382 -0.041635815 0.045240454 -0.028757615
0.0096265795 -0.14576183 0.16341309 -0.051059168 0.06345047 0.12080863 -0.032900497 0.10071215
-0.053487793 0.042625055 -0.04085309 0.14967437 -0.05367262 -0.0924293 -0.09249679 0.12689313
0.18177238 -0.06079211 -0.06825591 -0.0048572165 0.20085073 0.09976919 -0.08583502 0.04506852
-0.011505305 0.074588634 0.044767592 0.005722288 0.11037888 -0.055021655 0.12750167 -0.0106265135
0.010723316 0.38688412 0.05789087 0.13055962 0.049489662 0.030145863 -0.14583226 -0.12021516
0.026569631 0.55865824 -0.578211 0.17522605 -0.024968933 0.111325845 0.12823935 -0.13014272
0.10206504 0.21604563 -0.07738311 -0.15045126 -0.053175982 0.4828466 -0.012052806 0.09661997
0.0067409943 0.0029470874 0.058245044 0.16296001 -0.08634409 0.46407697 0.026324159 -0.41511798
0.30943504 -0.12523077 -0.03680575 0.123071946 0.181219 -0.014184793 -0.08234021 0.0893915
-0.13164353 -0.028686918 0.0011281224 -1.006809 -0.14220573 0.6097301 -0.055733476 -0.3813292
-0.1643692 -0.0095780995 -0.05730755 -0.68919253 -0.4652967 -0.09222969 0.02284956 0.09682198
-0.09088698 -0.1007046 -0.07128849 -0.13521837 0.040857017 -0.05659951 0.06989941 0.06774629
0.03221373 -0.113845594 0.1045178 -0.025023729 0.050155498 -0.13373797 0.05173887 -0.03062997
0.12384814 -0.05831936 0.15674573 0.12429705 -0.007449358 -0.028475702 -0.08761001 -0.11117661
0.015489192 0.12159083 0.06288607 0.15725334 0.05351367 0.058071095 -0.057820864 -0.11210777
0.113315724 0.1431106 0.05741031 0.0017558978 0.03377305 -0.08690816 0.05835458 0.047573704
-0.055483118 0.12732616 0.13188592 0.03042431 0.09163757 -0.09222271 -0.0016478611 0.041643843
-0.12121483 -0.07742248 -0.041443896 -0.04331999 0.12427199 0.04149071 0.10648801 0.1752085
-0.021315284 -0.09317773 -0.078665175 0.10410712 -0.10920296 0.10756976 -0.016392017 0.021580938
0.0056144884 -0.08078784 -0.094426475 0.09707849 -0.0879249 -0.12221412 0.08659475 -0.12126487
0.042728607 0.5768417 0.084754415 -0.019300893 0.00067199976 0.17922425 0.002809882 -0.21429873
-0.11320697 1.0526327 -0.8478298 0.010553435 -0.112902984 0.32267416 0.10119572 -0.32402673
0.07405219 0.03583522 0.095773704 -0.3706601 0.026626175 0.6805874 -0.15363543 0.23622487
0.10260167 -0.08700477 0.040334202 0.3095025 -0.25117505 0.2884867 0.08692378 -0.9429223
0.45498574 -0.029623535 0.11345856 -0.09414886 0.27022147 -0.12124383 0.088620365 0.040285412
-0.13925014 -0.14996137 -0.022405108 -1.2836467 -0.09494807 1.0804687 -0.026584841 -0.16858618
-0.037886024 0.028010586 0.045794666 -1.0627115 -0.6638505 -0.10609139 -0.15197343 0.11845837
-0.16437162 0.06358418 0.041110437 -0.34910005 0.014889139 0.016390193 0.09977582 0.1077379

layer2.bias f4 [64]
00000000: ba5f 7dbc d797 a6bc 9836 e5bd a2c2 82be
00000010: 505b 8abd 0f6a 02be a172 4ebd 4950 3dbe
00000020: e333 e0bd d1b0 13be 1fbb ee3d 3f1e 7dbd
00000030: 8559 073d 3adb 7abd 9b00 dcbd 8f5c 733e
00000040: d83d 51be 7f86 39be 048f fbbc 26e2 70bd
00000050: f48c 10be 4c54 c6bd df9a 963c b705 d9bd
00000060: 4a0f a03d 76ec c7bd 95a5 44be 12b0 6e3d
00000070: c92d a43e 49bd dfbd da0b cbbe 57c0 1cbe
00000080: 8268 e2bd 8f78 d5bd 2fc4 15be 4da5 13be
00000090: 949e 1cbe a91c 723d 2d6d bbbd af7f e9bd
000000a0: 91c4 41bd b785 7fbd 34b8 20be 3d3d dabd
000000b0: 9515 5a3d d1f5 193d 5126 173d f7cd 093e
000000c0: 1b23 94bc e1d9 f3bd 0713 8ebc 8ff2 ce3d
000000d0: 3b7e a2bc 1b39 fdbd fc65 873e f37b 703b
000000e0: d3b9 96bd a401 25be 24e7 0e3d 3b25 ae3d
000000f0: 88dc a33d 07cc b63c 237b 48be 785c 6dbe
-0.0154647175 -0.020336075 -0.111920536 -0.25539118 -0.06755698 -0.1273577 -0.050402287 -0.18487658
-0.109473966 -0.14422919 0.11656784 -0.061796423 0.033044357 -0.061244227 -0.10742303 0.23765777
-0.20433748 -0.18117712 -0.030707844 -0.058809422 -0.1411627 -0.09684047 0.018384395 -0.10596793
0.07815416 -0.09761898 -0.1920379 0.058273382 0.3206618 -0.10924775 -0.3965748 -0.15307747
-0.110550895 -0.10423385 -0.1462562 -0.14418526 -0.15294868 0.059109364 -0.09151683 -0.11401307
-0.0473066 -0.06238338 -0.15695268 -0.106562115 0.05324324 0.037587944 0.036901776 0.13457476
-0.018083146 -0.119067915 -0.017343057 0.10104858 -0.019835582 -0.12364408 0.26444995 0.0036694973
-0.07359662 -0.16113907 0.0348884 0.08503195 0.080010474 0.022314085 -0.19578223 -0.23179805

layer3.weight f4 [64, 64]
00000000: d10a db3c c295 453e 2de9 46be bb68 d6bd
00000010: 73d5 ccbd 2ec2 6bbe 4e4e 59bd 82c0 f3bd
00000020: 6add 5fbc a343 0d3e 4a41 1ebe 3681 6fbd
00000030: 8d0e bbbe 1f56 20be 6a2d 62be faf6 99bd
00000040: bdbd 40bd a357 83be d0c1 4abd 5441 433d
00000050: 1c68 f1bd a5fd ecbd 812d 343d 6b93 41be
00000060: 338b bb3d d6c6 c43d 6b90 db3d d652 b83d
00000070: 19e7 31bd 8502 143d e554 b4be ba6d 97bd
00000080: be64 05be 770c f03d 7178 49bd d9c1 033e
00000090: 36da a63c 7859 04be 535f 213d ccf2 37be
000000a0: bd77 6fbd 4f6f 5abe b27a efbd 6396 16be
000000b0: e0e9 c3ba b532 3d3e 9dbb e7bb 6f86 00be
000000c0: c7dd 9c3d 73ee abbd 6319 1c3e 18b2 083e
000000d0: d872 60be 50ae 8dbd 8d67 a3bd 1c49 e0bd
000000e0: 93b9 17be 10bc 5abe 178d 833e 0c92 af3d
000000f0: c0fc 733e 0fb5 09bd a969 90be 4ed2 8abd
00000100: ac18 afbd 62d9 853d 6ba5 cf3b 0736 283d
00000110: f38b 4abd 7302 013e 6e36 c03d 3470 a5bd
00000120: 2eab 783d e7b7 833e affb c63d 43e2 14bd
00000130: 0839 88bd 6c36 32bd 5c85 ce3d a6b6 703d
00000140: c9d6 84be 417d b0bd 47ff af3d 3e78 c5bc
00000150: 0970 8abd 7d91 a33d d290 1a3d d623 88bc
00000160: 8cd1 b1bd d2bb a43d 7693 133e 8bbd d43d
00000170: 62b3 87bd 5106 7fba c2e9 d1bd 12f7 fe3c
00000180: 215f 59bd d986 c13d 8e33 343e cf19 5c3e
00000190: 53b2 49bc 51c0 c73d c751 f83d e4d0 0e3d
000001a0: 6df8 6bbc eee4 053e c299 b63d dc79 123e
000001b0: ec8e 8b3c afb6 1d3c 4877 66bd 06d3 883d
000001c0: 20df 323e e380 d33c b949 97bc 1fa4 0d3e
000001d0: 58cc acbd de16 ba3c 8a12 b1bb 194f 6f3e
000001e0: 6a5d 6f3d c2e8 2dbc ca7a 703d ad4e d1bd
000001f0: 778e 35be f7a6 df3d 5284 223e c18d 4a3d
00000200: 7abc 4b3d 54cb 683c c756 6cbd 8000 c3bd
00000210: 731c c4bd 2d5b 3abd 72f2 9dbd 93de d4bd
00000220: c915 90bd 4789 053e d185 b3bd a9fc 9b3d
00000230: d9da 16bd e429 363d 6271 19be 625c 8fbd
00000240: f5d5 1f3e 89af 25be aebf 1abc 12a6 0bbe
00000250: 0eeb 903d 43d4 6ebc 4dd5 bdbc a42b 533d
00000260: 75d1 d9bd 5918 c03c 6534 6f3d dcd4 a43b
00000270: 3c1b 713d 3da8 aabd a410 ea3c e24b fabc
00000280: 8074 fa3b a425 dcbd 2696 8b3d 04f2 3a3c
00000290: 5953 1d3e 5216 41bd c476 d3bb adf2 393c
000002a0: 2132 603d 9e5f 58be ba7a 90bc 7f44 d0bd
000002b0: 3a0c 87bc a64c 303d 4946 173e 2c14 6abd
000002c0: 06e1 5fbe 959a 953d 2f09 dcbc e35b c33d
000002d0: 0936 1e3d df9e cfbd 6991 103e 06fe 153c
000002e0: 6f9d 8cbd 46c4 efbc 1eb0 ae3d 5432 b83d
000002f0: 4a5b 0e3e 9c01 73bc b042 9abc c046 b0bc
00000300: cc80 b0bd 17b7 453e 4d13 903d 2254 36be
00000310: 4ba0 0d3d 7e18 0abe 6b2a 303e 878b 26bd
00000320: 5dfc 4f3d 518a 56be ac6d bd3d 3f6b e93d
00000330: 9cce d3bb b9f6 cd3c 10a0 09bc c6ab 92bd
00000340: a7bb 963e 67d6 123d 4482 24bd dada 2abe
00000350: be24 f1bc cacd 76bd e3a0 8bba eeaa 5e3c
00000360: ede5 16be c453 3d3e 71ee 40bd 8f92 87bd
00000370: 087e 4fbd f5c6 b33d c02c dbbd 71b7 d13d
00000380: 67eb 5cbd adab b3bc 17a3 57bd ae90 28bd
00000390: 5085 a53c c233 5a3c 15e8 143e 66e5 27bd
000003a0: 6b09 9dbd 76d1 eb3d 0e48 633c 4969 55bd
000003b0: 20df 12be e448 b2bd 9c12 d4bd 2ba9 933d
000003c0: 4d74 a73d 05a6 313d d96d 00be 41e3 23be
000003d0: 0a03 b73d 8267 bdbd e815 103d 2284 563e
000003e0: ced0 52bd 9636 3f3c 1bb0 0c3e 54df 253d
000003f0: cdc0 d5bd 51cd 193e 625f a23d 78f6 b63d
0.026738556 0.1929541 -0.19424887 -0.104691945 -0.1000165 -0.23023292 -0.053053193 -0.11901952
-0.013663629 0.13795333 -0.15454593 -0.058472835 -0.3653454 -0.15657853 -0.22087637 -0.0751781
-0.04705595 -0.256528 -0.04950124 0.047669724 -0.117874354 -0.11571816 0.04398871 -0.18903892
0.091574095 0.096082374 0.10720905 0.09000175 -0.043433283 0.036135215 -0.3522102 -0.073939756
-0.13026711 0.117211275 -0.049187128 0.12866916 0.020367723 -0.12924755 0.03939755 -0.17963713
-0.0584638 -0.21331523 -0.11693324 -0.14705805 -0.001494702 0.18476374 -0.007071926 -0.12551282
0.07659488 -0.0839509 0.1524406 0.13349187 -0.2191881 -0.06918013 -0.07978735 -0.109514445
-0.14816885 -0.21360803 0.2569358 0.08572778 0.23826885 -0.033619937 -0.28205612 -0.06778394
-0.08549628 0.06535603 0.006336858 0.04106715 -0.049449872 0.1259859 0.09385382 -0.08078042
0.060710125 0.25726244 0.097159736 -0.036348592 -0.06651503 -0.043508932 0.1008403 0.058767937
-0.25945118 -0.0861764 0.08593612 -0.024105188 -0.0675965 0.07986734 0.037735768 -0.01661865
-0.08682546 0.080436364 0.1441172 0.10387715 -0.066260114 -0.0009728419 -0.10249664 0.031123672
-0.053069238 0.09449548 0.17597792 0.2149422 -0.012310582 0.09753478 0.12124973 0.034867182
-0.014402491 0.13075611 0.08916046 0.14304298 0.017035924 0.009626075 -0.0562661 0.066808745
0.17467928 0.025818294 -0.01846777 0.13832138 -0.08437413 0.022715982 -0.0054038214 0.23370017
0.058438696 -0.010614576 0.05871085 -0.10220084 -0.17730127 0.10920518 0.15870789 0.049451593
0.049740292 0.014208633 -0.057699945 -0.0952158 -0.09575739 -0.04549711 -0.077122584 -0.10394015
-0.07035405 0.13040648 -0.08765758 0.076165505 -0.036829803 0.044473544 -0.14984658 -0.070000425
0.15608962 -0.16180243 -0.009445114 -0.1363757 0.07076083 -0.014576974 -0.023172999 0.05155529
-0.10635654 0.02344911 0.058399577 0.0050302576 0.058863863 -0.0833287 0.028572388 -0.030553762
0.0076432824 -0.10749367 0.06815748 0.01141024 0.15363826 -0.047140427 -0.006453367 0.011349362
0.054735307 -0.21130225 -0.017636646 -0.101693146 -0.016485322 0.043041848 0.14772905 -0.057148144
-0.21863183 0.07304875 -0.026859848 0.095390104 0.03862575 -0.10137724 0.1411797 0.009154802
-0.068659656 -0.029268395 0.085296854 0.08993974 0.13902012 -0.014831927 -0.018830627 -0.021518111
-0.08618316 0.19308124 0.07034931 -0.17805532 0.034576695 -0.13485906 0.17203681 -0.040660407
0.05077778 -0.20951201 0.09249434 0.11397409 -0.0064638387 0.02514206 -0.008399978 -0.071616694
0.29440042 0.035849 -0.040163293 -0.16685048 -0.029436465 -0.06025485 -0.0010652806 0.0135905575
-0.14736147 0.18488985 -0.047102395 -0.06619751 -0.050657302 0.087781824 -0.10701895 0.10240067
-0.053935435 -0.021932447 -0.05264577 -0.041153602 0.02020517 0.013318004 0.14541657 -0.040990256
-0.07667812 0.11514561 0.01387216 -0.05210236 -0.14342928 -0.08705309 -0.10355112 0.072100006
0.081764795 0.04337122 -0.12541904 -0.16004659 0.089361265 -0.09248258 0.03517714 0.20948842
-0.051468663 0.011670729 0.13739054 0.040496185 -0.104371645 0.15019728 0.07928349 0.08933729

layer3.bias f4 [64]
00000000: 5ea7 11bd cfcb 15bd 71b3 a5bd f124 42be
00000010: edbc 72be 9e35 3c3d 77c5 dabd 6634 153d
00000020: 642c 083e facd ebbd 0851 623d 2b7d 54be
00000030: 0f9e 27bc c843 d6bd 0231 d13d e1f5 83bd
00000040: d06e 6ebd 69cb 7dbd dbd5 e83d a882 0a3e
00000050: dd9a ccbd 316b 60bc b4a8 3cbe d262 f33d
00000060: 25e0 013e f16c 7cbe 0473 c1bd 39d1 f8bc
00000070: a6da 87bd 9496 923d b060 89be 4fbd d3bd
00000080: 4492 843d 1056 253e 5ca5 dfbd 271b 273d
00000090: fbcc 173e b598 0e3d 8248 bc3d 10d7 d2bd
000000a0: f3d0 0b3e 0816 eeba ebd4 53bd d2a4 3d3d
000000b0: ed3b 123e 4957 6dbe dd99 71bd 8991 a6bd
000000c0: 81d9 2c3e 6509 c9bc ca42 5dbd 6bfc 093d
000000d0: 57ac d93d 4af1 293e 349e a33d b393 873d
000000e0: 77ac c53d 9bbf 71bc a4c0 5dbd 38a1 42be
000000f0: c060 06be adc1 38bd 85c6 39be 2451 36be
-0.035560004 -0.03657132 -0.08090866 -0.18959405 -0.23704882 0.04594957 -0.10682195 0.036426924
0.13298184 -0.11513896 0.05525306 -0.20750873 -0.010230555 -0.10462147 0.102144256 -0.06443382
-0.058211148 -0.061961565 0.11368915 0.13526404 -0.09990475 -0.013697431 -0.1842373 0.11884083
0.1268316 -0.24650933 -0.094457656 -0.030373203 -0.06633501 0.07157627 -0.2683158 -0.10338842
0.064732105 0.16146111 -0.10920212 0.04079738 0.14824288 0.0348136 0.09193517 -0.10294926
0.13653927 -0.0018164525 -0.051716726 0.046299763 0.14280672 -0.23177828 -0.058984626 -0.081332274
0.16879846 -0.024540612 -0.054018773 0.03368799 0.10628574 0.1659595 0.07989159 0.06619968
0.09652036 -0.014755155 -0.054138795 -0.19006813 -0.13122845 -0.04510658 -0.18142135 -0.1780439

layer4.weight f4 [1, 64]
00000000: 6b28 d3bd 79f5 8c3d 4001 90bc 46be 38be
00000010: 7b92 50be 9672 b3bd f1ca a8be b13b e8bd
00000020: 26ce d53d b2a5 6dbe 1bad 6e3d 0f92 a1be
00000030: 2742 873c 0841 97bd 2bdc a13d e9d3 c83e
00000040: 2e9b c8bd 68f2 9abd ff9a 6ebe b9da e63c
00000050: 7e8e 253e 23f9 163e 696d 5ebd 6c64 6abe
00000060: 8338 af3d e605 12bd 57a2 3bbd 05dc 2fbe
00000070: 3470 433d 25b5 3c3e f721 a5bc 4be7 72be
00000080: f458 b2bd 584c 7e3e 07ce b9bd 0ef4 8f3d
00000090: 7dd6 983d 3d59 893e eb1d 253e 470e 8cbe
000000a0: 7353 2abd 81d4 7dbe 7583 ce3d dcca 6a3d
000000b0: 5407 b43e 65ab 8fbe 0064 d3bd a395 07be
000000c0: 6041 f5bc f5b5 acbe cb83 0a3e 8e03 f5bd
000000d0: d0ba 633e 44bf 203d 96dc c13e ab78 6e3e
000000e0: 1f2e 8d3d f04b 513e bf5e a5be 8646 80be
000000f0: c688 ef3d 20f1 123e cb61 94be 0cc5 69be
-0.103104435 0.06882758 -0.017578721 -0.18041334 -0.20368378 -0.0876209 -0.32967332 -0.1133951
0.1043971 -0.23207739 0.058270555 -0.31556746 0.016511036 -0.073854506 0.07903322 0.39224175
-0.09795223 -0.075657666 -0.23301314 0.028180467 0.16167638 0.14743476 -0.05430356 -0.2288987
0.08555701 -0.035650156 -0.045809116 -0.17173775 0.047714427 0.18428476 -0.020157797 -0.23721044
-0.08708373 0.2483381 -0.090725 0.070289716 0.074627854 0.26825896 0.16124694 -0.27354643
-0.04158349 -0.24788095 0.10083667 0.057322368 0.3516184 -0.2806045 -0.10321808 -0.13240676
-0.0299384 -0.33732572 0.13526838 -0.11963569 0.22239232 0.039244905 0.37863606 0.23288219
0.068935625 0.20439124 -0.32298848 -0.25053805 0.11696009 0.14349794 -0.2898086 -0.22829074
