PINN/lib/weights/PINNModel_Sphere.pth (torch, 69589 bytes, 9 tensors)

layer1.weight f4 [64, 3]
0.44569245 -0.5324163 -0.3556581 -0.8522084 0.3893197 0.45359415 -0.19557847 0.05695259
-0.48355213 0.3544129 -0.05607838 -0.32039756 -0.28157634 0.21719715 -0.6183738 -0.0525909
0.6675848 0.8887942 0.21259324 0.122612156 0.47947267 0.45121837 -0.07602853 -0.668097
0.68055207 0.6338453 -0.87843645 0.026685962 0.096584186 0.62997067 0.3858231 0.035536356
1.0240464 0.26100674 -0.24207503 -0.5850032 -0.42773035 -0.07632614 0.7084759 0.16000308
-0.28880665 0.7155219 -0.31901124 -0.025209522 0.33029032 -5.0252314 0.027621796 0.2986552
0.6118486 -0.12820855 -0.032504715 0.3739483 0.8908317 0.6832571 0.06178669 -0.017696302
0.80459124 -0.1124965 0.12764964 -0.6642636 -0.3707875 0.083142996 0.38909566 0.047221236
0.3369593 -0.072156325 0.48342523 -0.3062237 0.47349593 -0.079573944 0.63296765 0.91479355
0.2812015 0.5297755 -1.1821575 -0.5384895 0.3973371 -0.13399848 0.31412688 1.0154842
0.6803304 -5.2008348 -0.63552755 0.32635385 -0.0111864675 -0.19273788 0.7477784 1.6728207
-0.08756008 0.043217033 -0.6620986 0.39543605 -0.53634197 18.724365 0.070612535 -0.32157913
-0.20269082 0.1875379 -0.9150304 -0.5070694 0.8445918 1.117999 -0.23699783 0.10662783
-0.6748228 0.39970523 -0.07321284 -1.027895 1.2796718 0.14380206 0.01697026 0.5246544
-0.08677744 0.95442706 -0.35127878 0.07277787 -0.31499922 -0.09294659 -0.3518094 -0.25515714
1.5525372 0.4841281 0.3578602 0.13752493 0.4301842 0.520539 0.43914968 0.19233988
-0.69305545 -0.09689115 -0.117133886 0.06884602 -0.2881978 -0.3321237 0.7601279 -0.13763306
0.6646669 -0.87316513 0.4474978 -0.7095629 1.2938784 -0.5046126 -0.7943822 -0.18758087
0.30931786 0.12555754 -0.107832395 -0.49922678 0.34801632 0.6502558 0.1551052 0.731838
-0.63576245 0.25657693 0.11607068 0.34474874 -0.044986 -0.4563332 0.26502314 0.014736121
0.14799863 0.4428494 0.2750112 0.3544537 0.48453048 0.39918488 0.018134458 -0.38829276
0.23043704 -0.059051655 0.6036399 -0.049488284 0.23181257 -0.14800198 -0.19494562 0.08807609
-0.81837296 -0.8041491 0.27804792 0.6626207 -0.32507226 -0.32536814 -0.21071944 0.070557006
0.12672655 -0.6839248 0.08855625 0.058120638 0.97255343 -0.14814195 0.41802186 0.78281945
00000000: cd31 e43e 6f4c 08bf d218 b6be 542a 5abf
00000010: e954 c73e 7e3d e83e b945 48be 1e47 693d
00000020: 2594 f7be 9c75 b53e 72b2 65bd 260b a4be
00000030: c62a 90be ee68 5e3e bf4d 1ebf 8e69 57bd
00000040: d6e6 2a3f 0488 633f 0bb2 593e 151c fb3d
00000050: 717d f53e 1806 e73e d9b4 9bbd 6808 2bbf
00000060: a938 2e3f b043 223f 36e1 60bf 859c da3c
00000070: eecd c53d c245 213f 9b8a c53e 928e 113d
00000080: f413 833f ada2 853e 84e2 77be c5c2 15bf
00000090: 79ff dabe e150 9cbd ad5e 353f d9d7 233e
000000a0: 77de 93be 712c 373f 7155 a3be 3384 cebc
000000b0: d01b a93e b2ce a0c0 1b47 e23c 56e9 983e
000000c0: 1ca2 1c3f 1a49 03be aa23 05bd 2776 bf3e
000000d0: 8c0d 643f f0e9 2e3f 0a14 7d3d d6f7 90bc
000000e0: b1f9 4d3f 9164 e6bd 96b6 023e 2e0d 2abf
000000f0: dcd7 bdbe e046 aa3d 8c37 c73e 0e6b 413d
00000100: ee85 ac3e b2c6 93bd 8383 f73e 5ac9 9cbe
00000110: 0f6e f23e aaf7 a2bd 2b0a 223f e92f 6a3f
00000120: a5f9 8f3e 5e9f 073f f050 97bf 73da 09bf
00000130: c56f cb3e e636 09be 3dd5 a03e 63fb 813f
00000140: 222a 2e3f 3d6d a6c0 efb1 22bf da17 a73e
00000150: 7247 37bc 145d 45be 686e 3f3f fd1e d63f
00000160: b352 b3bd 5804 313d 4b7f 29bf 9876 ca3e
00000170: b54d 09bf 80cb 9541 4e9d 903d 05a6 a4be
00000180: 2f8e 4fbe ef09 403e 6f3f 6abf 4dcf 01bf
00000190: 2b37 583f 971a 8f3f 8faf 72be b15f da3d
000001a0: 30c1 2cbf 2aa6 cc3e 9df0 95bd 1092 83bf
000001b0: 49cc a33f d940 133e 3705 8b3c c04f 063f
000001c0: 5fb8 b1bd 5555 743f d0da b3be 900c 953d
000001d0: 9447 a1be c85a bebd 5d20 b4be f5a3 82be
000001e0: 8ab9 c63f a3df f73e 7439 b73e 56d3 0c3e
000001f0: 1a41 dc3e 0b42 053f 3ad8 e03e bff4 443e
00000200: 156c 31bf de6e c6bd e4e3 efbd 24ff 8c3d
00000210: a98e 93be 1e0c aabe be97 423f aeef 0cbe
00000220: 9c27 2a3f c087 5fbf 6f1e e53e eaa5 35bf
00000230: cf9d a53f 4b2e 01bf a25c 4bbf 3315 40be
00000240: e95e 9e3e 2892 003e 3bd7 dcbd a79a ffbe
00000250: 322f b23e 2a77 263f e6d3 1e3e bc59 3b3f
00000260: 54c1 22bf 0d5e 833e 77b6 ed3d e882 b03e
00000270: 3d43 38bd 81a4 e9be 1db1 873e c56f 713c
00000280: f48c 173e 28bd e23e 45ce 8c3e f57a b53e
00000290: 6114 f83e f661 cc3e b78e 943c 4fce c6be
000002a0: b0f7 6b3e 26e0 71bd 2588 1a3f 3ab4 4abd
000002b0: 4660 6d3e d58d 17be d39f 47be 3d61 b43d
000002c0: e480 51bf b7dc 4dbf 4c5c 8e3e 83a1 293f
000002d0: df6f a6be a796 a6be d6c6 57be 3180 903d
000002e0: 9bc4 013e b215 2fbf fb5c b53d e80f 6e3d
000002f0: 43f9 783f 86b2 17be f606 d63e db66 483f

layer1.bias f4 [64]
0.63400364 0.02706734 0.51791227 -0.66903824 -0.3613788 0.12722805 -0.5899155 -0.6751643
0.10333982 -0.3042315 0.53427887 0.5025957 0.7789429 0.15373968 0.65165746 -0.2975225
0.40837002 -1.0563629 0.17604056 -0.05392101 0.60165876 -0.256103 0.120997146 0.28190818
-0.3672687 0.311915 -0.4129562 -0.16596554 0.0061451877 0.3322705 -1.0002346 0.109770335
0.5341039 -0.72357064 0.5101624 0.006290334 0.18445577 0.058694195 0.9788643 -0.012845663
-0.26773173 -0.42570457 -0.7272162 -0.106410086 -0.17865072 0.19286615 0.54432493 1.1649525
-0.77393854 -0.077703856 0.40215117 -0.897199 0.6139263 0.1808966 0.13978939 -0.92926
-0.6671437 -0.46413806 0.43347302 -0.32284406 0.25780785 -0.1909534 -0.56500196 -0.44977027
00000000: 104e 223f 54bc dd3c e695 043f 1746 2bbf
00000010: a406 b9be 1248 023e b404 17bf 91d7 2cbf
00000020: d4a3 d33d 3bc4 9bbe 80c6 083f 1daa 003f
00000030: cd68 473f ef6d 1d3e 06d3 263f de54 98be
00000040: e015 d13e e636 87bf fa43 343e 47dc 5cbd
00000050: 4f06 1a3f ef1f 83be 5acd f73d 4556 903e
00000060: a50a bcbe 53b3 9f3e ff6e d3be dff2 29be
00000070: 925d c93b 5c1f aa3e b007 80bf 45cf e03d
00000080: 08bb 083f ed3b 39bf 019a 023f 251f ce3b
00000090: f9e1 3c3e 5369 703d da96 7a3f 9e76 52bc
000000a0: 2214 89be f3f5 d9be d72a 3abf 88ed d9bd
000000b0: 37f0 36be b47e 453e e158 0b3f 2a1d 953f
000000c0: d620 46bf 3323 9fbd c2e6 cd3e d5ae 65bf
000000d0: 462a 1d3f f53c 393e f324 0f3e fce3 6dbf
000000e0: eec9 2abf 81a3 edbe 2df0 dd3e d14b a5be
000000f0: 64ff 833e 4a89 43be f8a3 10bf 4a48 e6be

layer2.weight f4 [128, 64]
-0.028268812 0.00046150773 -0.17503442 0.019753385 0.031212404 -0.027446857 0.16425964 -0.26984793
-0.117019184 0.046691354 0.14489463 -0.13515441 0.38144892 -0.0032668773 0.15267834 0.14194621
-0.06627678 0.17677431 0.047879633 -0.13593128 0.13916801 0.08961117 -0.16649382 0.11570744
0.06418167 0.0943262 0.045250032 0.2048695 0.047502015 0.0077105416 -0.20700766 -0.012177211
-0.06650583 -0.021185596 0.049872518 -0.16472453 0.074235134 0.14275958 0.19579409 0.11705524
-0.0879577 0.12227636 -0.07753683 0.14989315 0.14471774 -0.07874729 -0.0051154536 -0.10150429
-0.04775777 0.07946026 -0.13314606 0.001087056 -0.05394126 0.09291605 -0.093307495 -0.5759123
-0.007652166 0.097194225 0.1083232 -0.13133901 -0.040264703 -0.13953581 -0.16949122 0.059366144
-0.15507574 0.082637094 -0.018369634 0.0020465152 -0.063002974 0.044652518 0.08894641 0.25381058
-0.042976324 0.01919387 -0.067062974 0.022879308 -0.14316985 -0.04067013 0.059330877 -0.0053341845
-0.093793675 0.023935169 -0.05810078 -0.08752834 0.05099757 -0.015168636 -0.13479613 0.02771161
0.13596724 0.02298673 -0.031585906 -0.038826432 -0.07800576 -0.0011446013 0.07856331 0.028446332
0.034560174 -0.36798045 -0.12909254 0.16623652 -0.08850483 -0.1496182 -0.34230024 -0.04686368
0.101107605 -0.10854063 0.0577398 0.0010365917 -0.016088052 -0.054413784 0.20245665 0.032024223
0.17257771 0.14913495 -0.073649794 0.17223617 -0.003485278 -0.12867565 0.048113946 0.29822576
0.1641699 0.14849022 -0.20787033 -0.13739152 -0.10415979 -0.079214685 0.41020042 -0.12572023
0.21001859 -0.31592312 0.039154712 -0.25998178 0.1337842 -0.04989405 0.08862968 -0.43494546
-0.13093893 0.50027794 -0.06360393 -0.10737779 0.045311265 0.12184266 0.13373841 0.34070545
-0.25135547 -0.18939947 0.18737406 0.28053376 0.13865186 -0.027335098 0.14475033 0.05400579
-0.21539368 -0.28821173 -0.033451963 0.1724189 0.051955633 -0.040534914 -0.1955588 -1.237052
-0.11174131 0.13320886 0.07309571 -0.5161739 -0.03482191 0.07681787 0.17379946 -0.059156142
-0.104070306 -0.04542667 0.19633342 0.091568224 0.14172556 -0.043617964 0.14375493 0.03477094
0.23034866 -0.11246575 -0.044816494 0.23314604 0.08619007 0.14849584 -0.038895227 -0.09332559
-0.07912082 -0.004839833 0.17010593 -0.011550595 0.042182714 0.17463732 0.561686 -0.061598927
-0.032343086 0.18820737 -0.18205316 0.90978295 -0.08688993 -0.15197405 0.08060436 0.53386563
-0.118572176 0.3661824 -0.25377908 -0.053795412 -1.0783932 0.14805353 -0.8030113 0.08129861
0.004626499 -0.09782326 -0.10181657 -0.14204253 -0.45000902 0.035572346 -0.1730992 -0.042671163
0.09825652 -0.04519426 -0.28901348 -0.0070572854 0.15181932 0.038497783 0.32389137 0.0723968
-0.22361189 0.11319089 -0.27902132 0.35388097 -0.18377227 -0.16042663 -0.85553014 -0.06269884
-0.12992577 -0.013822984 0.3414043 -0.04391333 0.04524733 -0.13308568 -0.30617604 0.022131922
0.6052216 -0.09509402 -0.10725155 0.44334438 0.082535386 -0.1538614 -0.099966094 1.3419085
0.5207889 -0.06462738 -0.20518248 0.19900055 0.048268445 0.028952843 0.65996146 -0.07599382
00000000: ff93 e7bc 85f6 f139 393c 33be dad1 a13c
00000010: 28b1 ff3c 3bd8 e0bc ae33 283e 8229 8abe
00000020: c1a7 efbd 6f3f 3f3d 425f 143e eb65 0abe
00000030: 464d c33e 1b19 56bb b657 1c3e 595a 113e
00000040: 1fbc 87bd 5304 353e 6f1d 443d 9231 0bbe
00000050: 0f82 0e3e 1086 b73d 5b7d 2abe 06f8 ec3d
00000060: ae71 833d 182e c13d 1958 393d 4fc9 513e
00000070: 7991 423d b6a8 fc3b d1f9 53be ed82 47bc
00000080: 3534 88bd 6a8d adbc 2047 4c3d 8cad 28be
00000090: 9708 983d 912f 123e 3f7e 483e a8ba ef3d
000000a0: 2b23 b4bd 076c fa3d a1cb 9ebd 977d 193e
000000b0: e330 143e 4246 a1bd 899f a7bb 7be1 cfbd
000000c0: a79d 43bd 10bc a23d 7157 08be 8c7b 8e3a
000000d0: 83f1 5cbd c54a be3d 0018 bfbd fd6e 13bf
000000e0: 05bf fabb c40d c73d 8ed8 dd3d bc7d 06be
000000f0: 9aec 24bd 7ae2 0ebe 1b8f 2dbe ea29 733d
00000100: 2dcc 1ebe a33d a93d ea7b 96bc d41e 063b
00000110: b407 81bd 8fe5 363d 8929 b63d 76f3 813e
00000120: f107 30bd 763c 9d3c 5058 89bd 636d bb3c
00000130: 1e9b 12be b995 26bd ef04 733d 62ca aebb
00000140: e616 c0bd b013 c43c 15fb 6dbd 0f42 b3bd
00000150: d4e2 503d df85 78bc ff07 0abe 7503 e33c
00000160: ff3a 0b3e ab4e bc3c 3960 01bd 7708 1fbd
00000170: 7cc1 9fbd 7206 96ba cde5 a03d 4808 e93c
00000180: f88e 0d3d ef67 bcbe d630 04be e839 2a3e
00000190: 0542 b5bd 8335 19be fa41 afbe 21f4 3fbd
000001a0: 8111 cf3d 8d4a debd 9280 6c3d 3fde 873a
000001b0: 17cb 83bc fde0 5ebd cc50 4f3e d52b 033d
000001c0: 36b8 303e d5b6 183e b4d5 96bd ae5e 303e
000001d0: 4369 64bb 8dc3 03be 2113 453d 0cb1 983e
000001e0: 271c 283e d20d 183e f6db 54be 5db0 0cbe
000001f0: ba51 d5bd 4f3b a2bd ca05 d23e cebc 00be
00000200: 1d0f 573e adc0 a1be b160 203d 551c 85be
00000210: bafe 083e b45d 4cbd 7a83 b53d 2cb1 debe
00000220: db14 06be 3712 003f c742 82bd e3e8 dbbd
00000230: 4e98 393d a588 f93d b9f2 083e f270 ae3e
00000240: aab1 80be eff1 41be fcde 3f3e 1fa2 8f3e
00000250: c1fa 0d3e dbed dfbc 6e39 143e 2d35 5d3d
00000260: 2990 5cbe 7d90 93be ed04 09bd 958e 303e
00000270: 6ecf 543d f007 26bd 9140 48be b857 9ebf
00000280: a1d8 e4bd e767 083e 34b3 953d f923 04bf
00000290: 6ba1 0ebd b052 9d3d 7cf8 313e b64d 72bd
000002a0: d022 d5bd 5111 3abd a10b 493e 1f88 bb3d
000002b0: 8120 113e c0a8 32bd 7e34 133e f96b 0e3d
000002c0: 85e0 6b3e 7154 e6bd 8091 37bd d6bd 6e3e
000002d0: 6b84 b03d 4b0f 183e 9a50 1fbd 7d21 bfbd
000002e0: 190a a2bd 7697 9ebb 4030 2e3e b53e 3dbc
000002f0: c8c7 2c3d 20d4 323e a7ca 0f3f 284f 7cbd
00000300: 2f7a 04bd 6fb9 403e 256c 3abe 89e7 683f
00000310: 59f3 b1bd 169f 1bbe e613 a53d 6bab 083f
00000320: f8d5 f2bd 427c bb3e 55ef 81be 9458 5cbd
00000330: ca08 8abf 589b 173e 2692 4dbf e37f a63d
00000340: e399 973b 9057 c8bd 3585 d0bd 9973 11be
00000350: 9567 e6be 4fb4 113d eb40 31be f5c7 2ebd
00000360: b73a c93d 9e1d 39bd 93f9 93be cd40 e7bb
00000370: 8676 1b3e daaf 1d3d 17d5 a53e c644 943d
00000380: 84fa 64be a0d0 e73d e2db 8ebe e32f b53e
00000390: cc2e 3cbe e146 24be 0604 5bbf 4068 80bd
000003a0: 430b 05be cc79 62bc 8bcc ae3e 77de 33bd
000003b0: 4455 393d 9d47 08be 1bc3 9cbe 014e b53c
000003c0: ceef 1a3f a7c0 c2bd b3a6 dbbd 09fe e23e
000003d0: 5008 a93d d88d 1dbe 06bb ccbd a8c3 ab3f
000003e0: 6c52 053f 5c5b 84bd 5b1b 52be cdc6 4b3e
000003f0: 22b5 453d 832e ed3c 3cf3 283f a6a2 9bbd

layer2.bias f4 [128]
0.06741848 -0.052451864 0.073737666 -0.3014094 0.041118667 0.06455339 -0.18608552 -0.001151965
-0.12524673 0.29302007 -0.090918265 0.100401744 -0.14942843 -0.10743279 0.28524175 0.09742912
-0.19601382 -0.23229331 -0.15560487 -0.08255146 0.23442036 -0.2101361 0.07263924 0.031322442
-0.009751187 -0.021258824 0.12017847 0.2225017 -0.15969895 0.28027803 0.07698071 -0.0656056
0.15856503 0.1975434 -0.012065323 -0.18821289 0.29051372 0.32283145 -0.14192851 -0.010846811
-0.05948366 -0.1951373 0.18031439 -0.36109483 -0.26475495 0.03018674 -0.09936943 -0.014992829
0.0035576024 -0.11469822 0.051603846 -0.053866606 0.0266025 0.23639563 -0.1010514 -0.06837698
0.18897812 -0.05703694 -0.06670259 0.004141214 0.1353021 0.009776571 0.16181841 0.013506879
0.07387461 0.028530948 -0.08003203 -0.026979588 -0.118387744 -0.20782419 -0.2514098 0.14520335
-0.1469175 -0.15731227 -0.073270895 0.19474256 -0.06837951 -0.24163032 0.14581992 0.036057867
0.08161054 0.039623167 0.21854721 0.19186081 0.12310919 -0.21988153 -0.23005201 -0.10787593
0.18735205 0.30014348 -0.058963798 0.18539068 -0.0575915 0.18729426 -0.14508863 0.104217
0.006074221 0.0011569599 0.017695315 0.14115815 0.015397196 0.09033077 0.027188767 -0.23706836
0.113668755 0.17431775 -0.07633194 0.052645482 0.017923795 0.29714194 0.11856455 -0.1945792
0.09605055 -0.080050714 0.15729368 0.20761313 -0.11552963 -0.19537954 -0.06452646 -0.31617498
-0.2031416 -0.0036712317 -0.050639365 -0.05308027 0.24912962 -0.11198424 -0.1764239 0.054063857
00000000: b312 8a3d c4d7 56bd c603 973d 5552 9abe
00000010: 0c6c 283d 9134 843d 348d 3ebe 88fd 96ba
00000020: ae40 00be ba06 963e 5b33 babd 6e9f cd3d
00000030: c403 19be b905 dcbd 350b 923e eb88 c73d
00000040: d9b7 48be 4cde 6dbe e256 1fbe bd10 a9bd
00000050: e40b 703e eb2d 57be e2c3 943d f64b 003d
00000060: 71c3 1fbc fc26 aebc 2120 f63d 7cd7 633e
00000070: 1f88 23be 9a80 8f3e 10a8 9d3d 3b5c 86bd
00000080: df5e 223e d148 4a3e a2ad 45bc e1ba 40be
00000090: 37be 943e 2a4a a53e b555 11be d3b6 31bc
000000a0: 23a5 73bd 13d2 47be 56a4 383e 6ce1 b8be
000000b0: f68d 87be 2f4a f73c 3382 cbbd 7ca4 75bc
000000c0: aa26 693b e6e6 eabd 8e5e 533d 3ba3 5cbd
000000d0: 7ced d93c b211 723e 09f4 cebd 3b09 8cbd
000000e0: 7b83 413e 919f 69bd 5e9b 88bd 05b3 873b
000000f0: a28c 0a3e e92d 203c bab3 253e f54b 5d3c
00000100: 924b 973d bcb9 e93c d5e7 a3bd 4c04 ddbc
00000110: 4675 f2bd ddcf 54be c9b8 80be 30b0 143e
00000120: 8b71 16be 7816 21be 0d0f 96bd 986a 473e
00000130: 8e0a 8cbd f06d 77be d151 153e 6ab1 133d
00000140: 6d23 a73d e74b 223d d7ca 5f3e 2977 443e
00000150: ac20 fc3d a028 61be c192 6bbe 0eee dcbd
00000160: 37d9 3f3e 68ac 993e 0684 71bd 0ed7 3d3e
00000170: 11e5 6bbd 11ca 3f3e 1d92 14be b96f d53d
00000180: 420a c73b 22a5 973a c4f5 903c c38b 103e
00000190: 8544 7c3c 57ff b83d faba de3c 0cc2 72be
000001a0: 2acb e83d 5a80 323e ec53 9cbd caa2 573d
000001b0: ecd4 923c fd22 983e f9d1 f23d c53f 47be
000001c0: 27b6 c43d a1f1 a3bd 9811 213e 8998 543e
000001d0: cc9a ecbd 9311 48be 7326 84bd b0e1 a1be
000001e0: 5a04 50be 0c99 70bb 396b 4fbd b26a 59bd
000001f0: d61b 7f3e fe57 e5bd 78a8 34be 1072 5d3d

layer3.weight f4 [50, 128]
-0.1286199 0.04739301 -0.21586579 0.21374299 -0.099040926 -0.08483112 0.19165246 0.0923121
0.18892436 -0.12817223 0.042319674 0.08880627 0.19177462 0.060326736 0.072416686 -0.317122
0.05282105 -0.18902452 -0.07463759 -0.1991119 -0.08765951 0.27665442 0.19966078 0.38331243
0.37407118 0.10203393 -0.34188443 -0.21467085 0.0099799 0.049896605 -0.1916555 0.062854245
-0.41762772 -0.04766974 -0.11047205 0.24486208 -0.058967695 -0.0961356 -0.038500406 -0.0031071852
0.031355165 0.038464356 -0.23190121 0.26489052 0.015583585 0.018454209 0.0712172 0.04196566
0.31508112 0.119040415 0.1269971 0.042045947 0.17549336 -0.06936884 -0.03262744 0.10322234
-0.16518274 -0.2718019 0.024957083 0.14702825 -0.13698278 -0.086962834 0.11712044 0.32544467
-0.16226608 -0.00488594 0.013309685 -0.172852 -0.055830713 0.09980239 0.09838504 -0.13364872
0.0767718 0.012884316 0.0021649601 -0.39797613 0.13719921 -0.121363744 0.0075357677 -0.15763815
0.0017602985 -0.16861707 -0.19258097 -0.20573984 -0.055060945 0.15448245 0.16566081 -0.015750391
-0.09616156 -0.027656676 0.027071225 -0.17216294 -0.007111558 0.02801146 0.16336788 -0.22339955
-0.13044691 -0.11023699 -0.18161762 0.00096421206 -0.01693682 0.06704267 0.09542314 -0.11670607
-0.13600235 -0.040628538 -0.13701259 -0.14955474 0.16632982 -0.01714947 0.25894272 0.060454324
-0.27626932 0.048690725 0.050218567 -0.031936374 -0.06690593 -0.14682874 -0.11507712 0.10859157
0.18962146 0.44059575 0.10178404 0.16243342 0.0033905255 0.3221251 0.12464225 0.13057648
0.13060834 0.0069418238 -0.13535437 -0.01348454 0.11251585 0.20156261 -0.11696553 -0.05336004
-0.021777062 -0.060870007 -0.0058773765 0.19248149 0.0030615225 -0.048986085 0.30311167 0.072904445
-0.037489958 0.022493578 -0.076002546 -0.07795699 0.037348516 -0.150344 0.040203325 0.044555496
-0.018137937 -0.028470945 0.3067079 0.046782758 -0.18433282 0.46716392 0.10146947 -0.00037823195
-0.025274692 0.15773875 -0.21651867 -0.034013774 0.39385778 -0.048160445 -0.20114338 0.06854342
-0.007258309 -0.14053057 0.1013462 -0.18634285 -0.36794814 0.08793942 -0.3402882 0.054184753
0.03071501 -0.13525549 0.060960785 -0.081392825 -0.11091576 0.1777357 0.03805001 -0.17039636
0.15958294 -0.0058838343 -0.023634028 -0.010815088 0.08343836 -0.043840315 -0.10314713 -0.14955351
-0.12473726 -0.03904868 0.0050562746 0.0651061 -0.18472895 0.030966856 -0.12820685 0.12576415
-0.07667923 -0.086802594 0.0759807 0.21152474 -0.049825493 -0.09171503 -0.091217875 -0.10433117
0.14317322 0.17781776 0.044349957 0.06506359 0.10976587 -0.0017265928 0.18521169 -0.18770805
-0.05479579 0.28026104 -0.16343147 -0.07872493 -0.016191803 0.40056413 0.03273071 0.13892433
0.1580311 -0.034273677 0.017475504 0.1268176 0.2508554 0.20041995 0.038407896 -0.03309983
0.107360326 0.07242813 -0.047087565 -0.10983401 -0.017918091 0.31084797 -0.01996451 -0.25639266
0.19537614 -0.39510646 -0.008890956 0.030446634 -0.0883126 0.07246925 -0.010569363 -0.283775
0.11864105 0.015295136 -0.22928871 -0.107411206 0.3507379 -0.06737136 -0.12713383 0.14299163
00000000: efb4 03be 2c1f 423d ec0b 5dbe 71df 5a3e
00000010: f8d5 cabd f0bb adbd 8b40 443e 200e bd3d
00000020: 6375 413e 953f 03be 6557 2d3d 10e0 b53d
00000030: 9160 443e 2b19 773d 334f 943d d15d a2be
00000040: e35a 583d a58f 41be 98db 98bd fde3 4bbe
00000050: d486 b3bd a6a5 8d3e e073 4c3e 8741 c43e
00000060: 4286 bf3e 2af7 d03d 7a0b afbe add2 5bbe
00000070: bc82 233c 6260 4c3d 5741 44be bab9 803d
00000080: 4dd3 d5be 5841 43bd 2c3f e2bd 20bd 7a3e
00000090: 1c88 71bd bee2 c4bd 9ab2 1dbd eba1 4bbb
000000a0: 466e 003d cd8c 1d3d 8377 6dbe bb9f 873e
000000b0: 4b52 7f3c 482d 973c 53da 913d 2fe4 2b3d
000000c0: 5052 a13e 76cb f33d 870b 023e 5f38 2c3d
000000d0: 88b4 333e 4011 8ebd 5aa4 05bd 3c66 d33d
000000e0: aa25 29be 9e29 8bbe cc72 cc3c 938e 163e
000000f0: 3745 0cbe 9219 b2bd d7dc ef3d afa0 a63e
00000100: 1429 26be 3c1a a0bb dd10 5a3c 1d00 31be
00000110: bfae 64bd 3265 cc3d 197e c93d 36db 08be
00000120: 893a 9d3d bd18 533c 01e2 0d3b 87c3 cbbe
00000130: f37d 0c3e 8e8d f8bd 9aee f63b e56b 21be
00000140: d1b9 e63a f4a9 2cbe f233 45be 77ad 52be
00000150: 9687 61bd a630 1e3e fda2 293e f706 81bc
00000160: 5af0 c4bd 4190 e2bc 79c4 dd3c 7b4b 30be
00000170: 1308 e9bb 4a78 e53c e949 273e dac2 64be
00000180: e093 05be eec3 e1bd f8f9 39be 2dc3 7c3a
00000190: 16bf 8abc ab4d 893d 356d c33d 9803 efbd
000001a0: 3344 0bbe 1c6a 26bd 074d 0cbe e124 19be
000001b0: 5d52 2a3e 0c7d 8cbc 2494 843e f49e 773d
000001c0: 2c73 8dbe ed6f 473d fcb1 4d3d b7cf 02bd
000001d0: fa05 89bd 465a 16be 8ead ebbd 4265 de3d
000001e0: 212c 423e c495 e13e 2774 d03d f254 263e
000001f0: 9433 5e3b 95ed a43e 7044 ff3d d7b5 053e
00000200: 31be 053e 3d78 e33b 569a 0abe 43ee 5cbc
00000210: b66e e63d 6e66 4e3e a08b efbd 0f90 5abd
00000220: cf65 b2bc d452 79bd 0297 c0bb de19 453e
00000230: d3a3 483b a2a5 48bd 7431 9b3e ed4e 953d
00000240: 128f 19bd 7444 b83c 39a7 9bbd eaa7 9fbd
00000250: c2fa 183d c7f3 19be 3eac 243d d37f 363d
00000260: 0396 94bc e63b e9bc d108 9d3e 479f 3f3d
00000270: bec1 3cbe 1c30 ef3e 3acf cf3d 6f4d c6b9
00000280: df0c cfbc 4486 213e 12b7 5dbe 0752 0bbd
00000290: baa7 c93e e343 45bd 88f8 4dbe 7e60 8c3d
000002a0: 1cd7 edbb 3fe7 0fbe 998e cf3d a9d0 3ebe
000002b0: b363 bcbe 9519 b43d 413a aebe d5f0 5d3d
000002c0: 0b9e fb3c 6a80 0abe 04b2 793d 48b1 a6bd
000002d0: cd27 e3bd 5900 363e 54da 1b3d 627c 2ebe
000002e0: b669 233e 2ecd c0bb 269c c1bc c431 31bc
000002f0: bbe1 aa3d e791 33bd cd3e d3bd 8e24 19be
00000300: 4076 ffbd 82f1 1fbd 1baf a53b 5956 853d
00000310: 9629 3dbe 34ae fd3c a848 03be 51c8 003e
00000320: 000a 9dbd 8fc5 b1bd c59b 9b3d f199 583e
00000330: d115 4cbd 17d5 bbbd 70d0 babd 95ab d5bd
00000340: 009c 123e dc15 363e 4da8 353d 0f40 853d
00000350: eecc e03d d74e e2ba 22a8 3d3e 8a36 40be
00000360: 8d71 60bd 607e 8f3e 945a 27be 893a a1bd
00000370: aca4 84bc be16 cd3e a310 063d 2e42 0e3e
00000380: e8d2 213e 8e62 0cbd ca28 8f3c 79dc 013e
00000390: 1e70 803e e33a 4d3e 9951 1d3d b093 07bd
000003a0: bbdf db3d 3355 943d e4de 40bd a7f0 e0bd
000003b0: f6c8 92bc 7727 9f3e 9d8c a3bc e645 83be
000003c0: af10 483e 654b cabe 5fab 11bc 386b f93c
000003d0: 3ddd b4bd c26a 943d 1f2b 2dbc f54a 91be
000003e0: 14fa f23d 7398 7a3c a9ca 6abe 68fa dbbd
000003f0: eb93 b33e fff9 89bd 5f2f 02be 666c 123e

layer3.bias f4 [50]
0.01965552 0.46920994 -0.58410025 0.109322816 0.5008335 0.44133237 -0.68882704 -0.27098355
0.3342691 0.45023414 0.026199257 0.43415716 0.23650707 0.042887457 0.11151008 0.08170297
-0.46913436 -0.13986097 -0.16790234 -0.13398468 0.044706814 0.18423016 0.10077628 -0.019473128
-0.071224466 -0.28458375 0.16826867 -0.0034218929 -0.22292417 -0.1544341 -0.045927726 0.4626828
0.44325504 0.17130886 0.0893975 -0.49585474 -0.03493667 -0.58429897 0.40088618 0.044410817
-0.4080954 0.40342975 0.39461157 0.13523962 -0.065691255 0.014047628 -0.30959213 -0.09109361
0.111802906 0.018209906
00000000: 9d04 a13c 493c f03e 9887 15bf a4e4 df3d
00000010: a036 003f 51f6 e13e f856 30bf 5bbe 8abe
00000020: 5225 ab3e 1785 e63e d39f d63c d949 de3e
00000030: e92e 723e c2aa 2f3d 665f e43d e353 a73d
00000040: 6132 f0be b737 0fbe 97ee 2bbe 4833 09be
00000050: 7e1e 373d d5a6 3c3e cb63 ce3d 1c86 9fbc
00000060: 22de 91bd f6b4 91be 9f4e 2c3e d641 60bb
00000070: 3c46 64be f923 1ebe b61e 3cbd c3e4 ec3e
00000080: 53f2 e23e 976b 2f3e 0916 b73d ace0 fdbe
00000090: c119 0fbd 9e94 15bf f440 cd3e 1ee8 353d
000000a0: e1f1 d0be 588e ce3e 870a ca3e 417c 0a3e
000000b0: 2389 86bd 0628 663c dc82 9ebe 498f babd
000000c0: ecf8 e43d f12c 953c

layer4.weight f4 [25, 50]
-0.32192558 -0.03838999 0.13312171 -0.13624929 0.0038895062 -0.11217734 0.12715304 0.09314165
-0.13748038 -0.09333414 -0.2573224 0.024231734 -0.14113551 -0.063809484 0.2162562 -0.17572837
0.019917658 -0.002713781 0.13328977 -0.09471871 -0.28510568 -0.13586491 -0.008950575 -0.0024974598
0.021794572 0.12861963 -0.0975265 0.052360818 0.031971406 0.030128453 -0.07900319 -0.05000356
-0.094513506 -0.16931114 0.28965473 0.15584037 -0.14096233 0.13570653 -0.0008752036 -0.03682907
-0.04229619 -0.067443766 -0.20510407 -0.04557134 0.10656013 0.22671983 -0.016335241 0.08007566
-0.0092168795 0.22045231 0.14049706 0.06591894 -0.10793236 0.040833008 0.17002593 0.017227469
-0.08461367 -0.021185553 -0.1098221 0.14080931 -0.07587806 0.1348197 -0.0728484 -0.06900833
0.06614724 -0.0051970077 0.07325823 0.001678819 -0.07847869 0.042642314 0.22788292 -0.06996152
-0.09878683 -0.055954944 0.08668566 0.054599326 0.0009305772 0.031362142 0.08751168 0.082829006
0.028897421 0.052653536 -0.079055704 -0.1615478 0.00027414333 0.029344874 0.110601276 -0.15571113
0.0009832447 0.08550018 -0.08243064 0.14155413 0.030447474 -0.09904865 -0.05878511 -0.11017777
-0.07940919 -0.025505181 0.07057365 -0.02206638 0.05651963 -0.007751856 0.18793833 0.22137508
0.07273143 0.011648215 0.03652323 0.003795315 -0.115079276 0.052772384 -0.043607157 -0.1369819
0.073174246 0.09901308 0.07079109 0.09411776 -0.074291036 0.1787882 -0.10916061 -0.013805237
0.036689732 0.029368702 0.1623657 0.1404789 0.017153854 0.044981606 -0.14962916 -0.0005910305
0.0069514546 0.011375733 -0.0007819521 -0.024531063 -0.09975693 0.14491974 0.04846815 0.053760137
-0.10216952 0.14981678 0.08045699 -0.06646635 -0.01731118 -0.12886375 0.046472467 0.083967686
-0.0630021 -0.14167029 0.016169246 -0.13572064 -0.022069056 -0.11324647 -0.2213167 0.13222429
-0.10737428 -0.27716964 -0.02665697 0.13604653 -0.13387159 -0.023939677 -0.013485418 0.11431641
-0.06535524 0.1685783 0.1058511 0.03315357 -0.16248111 -0.23922835 -0.049108647 -0.031021668
-0.13296074 -0.039736994 0.18231127 0.06484566 0.17938918 -0.09166933 0.010793272 -0.08269154
-0.029778348 0.2265963 -0.13676062 0.03519399 0.18836011 -0.016012754 0.10248928 0.11007266
0.08113457 -0.054281265 -0.1349895 -0.10365944 -0.06488263 -0.038845334 0.04012653 0.0056769135
0.12092398 -0.017988743 -0.010812721 0.009553525 -0.0444471 -0.05911026 0.11674725 0.052383073
-0.12480533 -0.13199143 0.067815654 -0.2068829 -0.17620832 -0.012044443 0.0154065 -0.044253323
-0.11452951 0.086642034 0.002825717 -0.14460088 -0.14469406 -0.045388207 -0.014134645 -0.26814657
-0.14874817 -0.0052295537 0.009638457 0.014637966 -0.05958152 0.1093004 0.022321176 0.14134479
-0.060930744 0.10931417 0.11039382 0.18667234 0.073066965 -0.022044986 0.26010096 -0.19225006
-0.09678191 0.26619905 -0.048182864 0.053253584 -0.10568866 0.05750344 -0.034731504 -0.10652633
-0.0134091815 -0.011129596 -0.01845308 0.0138980355 0.13903569 0.10376209 0.03311896 -0.072450615
0.005747102 0.02736224 -0.26449823 -0.15768191 0.11640115 -0.0886531 -0.08438088 -0.10359281
00000000: 6ed3 a4be d23e 1dbd 0f51 083e ef84 0bbe
00000010: 16e7 7e3b 3cbd e5bd 6834 023e 0dc1 be3d
00000020: a8c7 0cbe f825 bfbd c3bf 83be a181 c63c
00000030: d485 10be 8cae 82bd 4472 5d3e 23f2 33be
00000040: 5b2a a33c b1d9 31bb 1d7d 083e e2fb c1bd
00000050: 5ff9 91be 2c20 0bbe 6fa5 12bc 6cac 23bb
00000060: 888a b23c ddb4 033e f9bb c7bd 4c78 563d
00000070: 73f4 023d f2cf f63c 6dcc a1bd 88d0 4cbd
00000080: 4c90 c1bd e65f 2dbe a04d 943e 9e94 1f3e
00000090: 6e58 10be a7f6 0a3e eb6d 65ba 14da 16bd
000000a0: c53e 2dbd f51f 8abd cd06 52be 03a9 3abd
000000b0: 333c da3d 3e29 683e 7cd1 85bc b5fe a33d
000000c0: 6502 17bc 40be 613e 76de 0f3e 8200 873d
000000d0: a40b ddbd 8340 273d 471b 2e3e 9f20 8d3c
000000e0: ef49 adbd 538d adbc 69ea e0bd 5130 103e
000000f0: f565 9bbd 2d0e 0a3e 8b31 95bd 3d54 8dbd
00000100: 3478 873d a94b aabb 6908 963d d10b dc3a
00000110: 6fb9 a0bd b5a9 2e3d 245a 693e fc47 8fbd
00000120: c050 cabd 0331 65bd 4088 b13d 8ba3 5f3d
00000130: fbf1 733a 9775 003d 5339 b33d 41a2 a93d
00000140: 49ba ec3c 3cab 573d f5e7 a1bd c96c 25be
00000150: e5ba 8f39 a964 f03c ec82 e23d bd72 1fbe
00000160: 38e0 803a b81a af3d 65d1 a8bd 91f3 103e
00000170: fb6c f93c 05da cabd a8c8 70bd e2a4 e1bd
00000180: 49a1 a2bd 3ef0 d0bc eb88 903d 8ec4 b4bc
00000190: 2181 673d 4803 febb e872 403e 26b0 623e
000001a0: 37f4 943d 28d8 3e3c 6299 153d d2ba 783b
000001b0: afae ebbd db27 583d 6b9d 32bd fc44 0cbe
000001c0: 61dc 953d 5fc7 ca3d ebfa 903d d0c0 c03d
000001d0: e625 98bd 4114 373e 998f dfbd 5c2f 62bc
000001e0: f947 163d a296 f03c 3243 263e b3d9 0f3e
000001f0: 3d86 8c3c a23e 383d 6338 19be 63ef 1aba
00000200: 07c9 e33b 4861 3a3c ebfb 4cba 5ef5 c8bc
00000210: 5c4d ccbd d765 143e 8a86 463d 9733 5c3d
00000220: 413e d1bd 9269 193e a2c6 a43d 821f 88bd
00000230: 2dd0 8dbc dcf4 03be ea59 3e3d 40f7 ab3d
00000240: 3f07 81bd 0412 11be 5e75 843c 5afa 0abe
00000250: 2aca b4bc c4ed e7bd d8a0 62be ce65 073e
00000260: 0ce7 dbbd 2ee9 8dbe b85f dabc c84f 0b3e
00000270: a215 09be 241d c4bc f1f1 5cbc b91e ea3d
00000280: f8d8 85bd ca9f 2c3e 76c8 d83d 0acc 073d
00000290: 7361 26be 47f8 74be 2626 49bd 2721 febc
000002a0: dc26 08be 42c3 22bd ceaf 3a3e cdcd 843d
000002b0: ccb1 373e 21bd bbbd 44d6 303c 2f5a a9bd
000002c0: b9f1 f3bc dc08 683e fa0a 0cbe 9327 103d
000002d0: 79e1 403e 2e2d 83bc e6e5 d13d c66d e13d
000002e0: e229 a63d 0856 5ebd b03a 0abe 674b d4bd
000002f0: 2fe1 84bd 491c 1fbd b75b 243d 6705 ba3b
00000300: fea6 f73d 215d 93bc d727 31bc 6386 1c3c
00000310: 2a0e 36bd 9a1d 72bd 2f19 ef3d a28f 563d
00000320: f099 ffbd c328 07be efe2 8a3d 1cd9 53be
00000330: f46f 34be 0e56 45bc 8b6b 7c3c f942 35bd
00000340: 738e eabd 6171 b13d aa2f 393b 4112 14be
00000350: ae2a 14be fce8 39bd 0095 67bc 824a 89be
00000360: 7151 18be ad5c abbb 9eea 1d3c 14d4 6f3c
00000370: c00b 74bd e3d8 df3d e6da b63c b0bc 103e
00000380: 8492 79bd 1ce0 df3d 2816 e23d 0927 3f3e
00000390: 22a4 953d b097 b4bc f42b 853e 33dd 44be
000003a0: 9835 c6bd 3e4b 883e 655b 45bd 6e20 5a3d
000003b0: 4c73 d8bd ba88 6b3d 9f42 0ebd 7a2a dabd
000003c0: 2fb2 5bbc e958 36bc ea2a 97bc 96b4 633c
000003d0: 5f5f 0e3e 3881 d43d bfa7 073d fd60 94bd
000003e0: 3052 bc3b c726 e03c 506c 87be 5e77 21be
000003f0: ba63 ee3d c28f b5bd e2cf acbd 7828 d4bd

layer4.bias f4 [25]
0.082875945 -0.035956275 -0.02100051 0.13888194 -0.15068033 -0.17936021 0.304994 0.06494961
0.0161515 -0.1493263 0.45891538 -0.07650376 0.13935678 0.15286086 0.012213726 0.0593957
0.16916949 -0.029151835 -0.026885914 0.14860392 0.024941122 0.114732146 -0.10334773 -0.15378417
0.13499068
00000000: ddba a93d e346 13bd 4309 acbc 1137 0e3e
00000010: f24b 1abe 34aa 37be 2c28 9c3e 4d04 853d
00000020: 2750 843c fee8 18be f5f6 ea3e 01ae 9cbd
00000030: 8bb3 0e3e 8f87 1c3e 141c 483c e848 733d
00000040: c43a 2d3e d4cf eebc d93f dcbc a02b 183e
00000050: 5351 cc3c b0f8 ea3d faa7 d3bd 9979 1dbe
00000060: ff3a 0a3e

layer5.weight f4 [1, 25]
-0.28885376 -0.011416187 -0.0008407682 -0.003578976 0.016558487 0.10772122 0.00074877706 0.0016413331
0.07084317 0.03339011 -0.43862206 0.09826515 0.054833483 0.0008397227 -0.42034072 0.47281697
-0.005332543 -0.0061328434 -0.1448642 -0.00014432929 0.04649356 -0.0023300133 0.27247643 -0.10829119
-0.002261325
00000000: a4e4 93be f50a 3bbc 0067 5cba 418d 6abb
00000010: aaa5 873c f19c dc3d 9449 443a 0022 d73a
00000020: 3916 913d 11c4 083d 1293 e0be 3d3f c93d
00000030: 1399 603d d620 5c3a e636 d7be 1115 f23e
00000040: 9dbc aebb 05f6 c8bb 4857 14be 1957 17b9
00000050: 0870 3e3d 23b3 18bb 0882 8b3e c5c7 ddbd
00000060: bd32 14bb
