PINN/lib/weights/PINN_Model_1D_1D_test.pth (torch, 38161 bytes, 7 tensors)

layer1.weight f4 [64, 2]
000000 e3 e6 19 bf 43 40 69 bf 76 eb 46 bd a5 83 1f bf
       -0.6011793 -0.9111368 -0.048564397 -0.6231025
000010 bb ea c6 3e 50 05 cd bd 45 c0 d6 be fd e9 69 bf
       0.3885096 -0.10010779 -0.41943565 -0.9137266
000020 d0 57 6c bf 58 a5 83 bf 00 52 ad 3e d8 ae 20 bf
       -0.9232149 -1.0284834 0.33851624 -0.6276679
000030 e4 f1 1b 3f 88 0b 9f be c1 00 08 3f b3 4c a4 3d
       0.6091597 -0.31063485 0.5312615 0.08022442
000040 dd 86 20 3f 51 23 72 bf 9d 76 a1 be b6 8b 44 bf
       0.62705785 -0.9458514 -0.31535807 -0.7677568
000050 d9 93 19 bf 13 af 1e 3d f0 be 28 bf e2 01 65 bf
       -0.5999122 0.038741183 -0.6591635 -0.89456
000060 08 39 0d bf ee 7f f1 3e 8d 46 07 3f 6b e6 0f 3f
       -0.5516515 0.47167915 0.52842027 0.56210965
000070 f8 74 16 bf 1d 67 e7 3e 21 fb ab be 26 88 23 bf
       -0.5877223 0.45195857 -0.33590034 -0.6387962
000080 62 47 82 be fc 1c 5f 3f c2 5f e5 be 86 a9 b0 be
       -0.25445086 0.871536 -0.4479962 -0.34504336
000090 6b 38 0d bf 82 73 13 bf 7f 1e 59 3e 19 81 f0 be
       -0.5516421 -0.57598126 0.2120304 -0.46973494
0000a0 61 5a 48 bf 5d f1 6e bf 0b 54 9d 3e 82 25 e3 bd
       -0.7826291 -0.9333704 0.30728182 -0.110911384
0000b0 b3 a1 74 be 73 6a 6e 3e d1 f4 60 bf 89 64 7c 3f
       -0.23889808 0.23282795 -0.8787356 0.98590904
0000c0 78 76 36 3d 40 dc ee 3e 90 72 06 3f 0d 8a 44 3e
       0.044546574 0.46652412 0.5251856 0.19193287
0000d0 73 8d ce 3e c2 0b 0f bf eb f3 fb 3e ad 54 1f bf
       0.40342292 -0.55877316 0.49209532 -0.6223858
0000e0 4c 41 23 3f 8b 94 4e bf 74 9a fe bd 7a a4 5b bf
       0.6377151 -0.8069541 -0.12431803 -0.85797846
0000f0 e8 78 c3 3e 0d 9b c0 3e e5 3c 1c bf ee 82 8a bf
       0.38178182 0.37618294 -0.6103042 -1.0821207
000100 08 93 17 3f 73 27 fb 3e 51 42 17 3f f9 7e 4b bf
       0.59208727 0.49053535 0.59085566 -0.7949062
000110 dc 6f 29 bf bd 04 6a bf 41 53 04 bf 4b 6a 1d 3e
       -0.6618631 -0.9141348 -0.51689535 0.15372579
000120 a3 23 3a 3f 72 8f 85 3f c6 2d a6 3e ba e6 97 3e
       0.7271063 1.0434401 0.32456797 0.29668218
000130 93 fa c9 be fd 09 e8 be 01 a5 2b bf 04 da b1 be
       -0.39448985 -0.4532012 -0.6704865 -0.34736645
000140 d9 67 ad 3e 31 d5 39 bf 3d 56 9d bd 25 1d 09 3f
       0.33868292 -0.7259093 -0.07682464 0.53560096
000150 33 56 37 bf 3a 9b 4f 3f f9 b2 df be 9b b5 14 3f
       -0.71615905 0.8109623 -0.43691233 0.5808961
000160 9a 35 48 bf 53 33 3b 3f a5 64 42 bf a5 21 58 bf
       -0.7820679 0.7312519 -0.7593482 -0.8442634
000170 d7 46 5e 3e 2e 46 8c be d7 43 87 3e 22 c1 14 3f
       0.21706711 -0.27397293 0.26418945 0.581072
000180 92 a5 54 3f fb 4c 9a 3f 1c 34 f5 be ae 87 21 3f
       0.8306514 1.2054743 -0.4789132 0.63097656
000190 29 9b 0f 3f 38 e2 62 bf 2b c5 0e bf d5 2c 25 3f
       0.5609613 -0.8862643 -0.55769604 0.64521533
0001a0 73 6a a6 be c1 9e 2a bf 48 df 26 3f 20 2a 8b bf
       -0.3250309 -0.6664849 0.6518445 -1.087223
0001b0 dc 14 e8 3e 1b d2 3c bf b1 43 1d bf 5f 60 28 bf
       0.45328414 -0.73758096 -0.61431414 -0.6577205
0001c0 60 a5 09 bf 0c c3 2a 3f 6f ef d6 3e 30 8a 7f bf
       -0.5376797 0.6670387 0.41979548 -0.9982023
0001d0 80 71 07 3f 71 ac 3c bf 92 6f c6 be f6 5c 04 be
       0.5290756 -0.73700625 -0.38756996 -0.12926087
0001e0 2a 34 e0 3e 48 3e 00 3f 3e dc 03 3f 63 c2 ef be
       0.43789798 0.50095034 0.5150794 -0.46827993
0001f0 a2 0a ff 3e 5e ec 59 bf 81 6d e1 bd 78 ca 22 bf
       0.498128 -0.8512629 -0.11007214 -0.6359019

layer1.bias f4 [64]
000000 6e 22 fb 3e 64 2a 75 3e 70 88 d8 bc f9 f4 29 bc
       0.49049705 0.23941952 -0.026432246 -0.010373347
000010 30 84 e4 bd eb d7 24 3f 5b 73 fb bc 61 49 40 bf
       -0.11158025 0.64391965 -0.030694654 -0.7511197
000020 e4 c3 84 bd f3 ef 3e bc b5 56 21 be b9 49 23 3f
       -0.06482676 -0.011653888 -0.15755732 0.63784367
000030 32 1a 17 bf 82 69 16 bf d5 a0 b2 bd d6 92 83 3c
       -0.59024346 -0.5875474 -0.087220825 0.016061228
000040 f7 75 70 be f9 c1 05 3e ae 87 50 be e2 dd 50 be
       -0.234825 0.13062276 -0.20364258 -0.20397142
000050 67 d0 e5 be b2 d2 34 bf 8f 2a b2 3e 56 b1 1f 3f
       -0.4488556 -0.70633996 0.34798095 0.6237997
000060 bf d6 a9 3e c2 9e 3f 3f 02 81 31 3f 52 b0 5e 3f
       0.3317165 0.7485162 0.69337475 0.86987793
000070 80 3b 23 bf 42 a6 47 3d 5e 32 8a 3e f2 9e 02 3c
       -0.63762665 0.04874254 0.26991552 0.007972466
000080 98 28 53 3d 3f a5 8f 3f 3f 4e 5d be b2 7b e8 be
       0.051552385 1.1222304 -0.2161188 -0.45406872
000090 7b 25 64 bf b7 9d 0d 3f d7 3f 03 bf 00 90 20 3d
       -0.8911969 0.5531878 -0.51269287 0.03919983
0000a0 b0 05 04 3f 48 f9 f3 3e f5 0a 13 3f c0 55 ee 3e
       0.5157118 0.47651124 0.57438594 0.46549797
0000b0 4e 03 c2 be 79 fa 97 be 36 22 b8 be a9 47 3a 3f
       -0.37893146 -0.29683283 -0.359636 0.72765595
0000c0 ef e4 37 3d 63 b5 4d bf f6 e3 5d be 89 70 2b 3d
       0.044896062 -0.803549 -0.21668991 0.04185537
0000d0 02 aa 06 3f d8 d1 de 39 49 a8 c4 3e 20 ea 6a 3f
       0.5260316 0.00042499485 0.3840964 0.91763496
0000e0 0e ca 6e bf ee 33 ed be 31 07 6a 3f 37 8e ef 3e
       -0.9327706 -0.46328682 0.91417223 0.4678819
0000f0 39 f0 04 bf 57 05 15 3f e7 47 3a 3d 1f 0f 1d 3f
       -0.5192905 0.5821127 0.045478728 0.613512

layer2.weight f4 [64, 64]
000000 10 c8 c9 bd 4f 0e 80 bd 82 32 4d 3e a1 6d cd bd
       -0.09852612 -0.06252729 0.20038798 -0.10030676
000010 cd 01 67 3c f0 b2 72 3c 4d 2e 86 3e 55 c9 68 3e
       0.01409955 0.01481317 0.262072 0.22733052
000020 b8 7d a6 3b 6c b7 cd bb dc d1 24 bd 59 81 5f bd
       0.005080905 -0.006277969 -0.0402392 -0.054566715
000030 7b 18 e7 bd 1d 1a d2 3d 39 0a 27 be 87 6e 23 be
       -0.11283966 0.10258887 -0.16312493 -0.15960132
000040 93 5c 8c 3e 7b fc 3f be 56 97 27 be 86 ac eb 3d
       0.2741438 -0.18748657 -0.16366324 0.115075156
000050 85 fd a9 3d a3 f3 16 bd 90 be c0 bd 54 71 f3 bb
       0.08300308 -0.036853444 -0.09411347 -0.0074292812
000060 71 f2 3c 3d 50 db 5d 3d 76 b4 f4 3d d9 c3 91 bd
       0.046129648 0.05416423 0.11948483 -0.07117433
000070 ac a4 85 3c 25 01 ff bd 43 03 4a 3d fa 08 82 bd
       0.016313873 -0.1245139 0.049319517 -0.063493684
000080 19 84 db bb 55 aa ee bd 53 17 b9 bb 2c 2f e7 bc
       -0.006699097 -0.11653582 -0.0056485324 -0.028220735
000090 c4 01 b3 3e 8d 50 29 3c 20 17 ee bd 90 54 23 bd
       0.34962285 0.010334146 -0.116255045 -0.039875567
0000a0 51 97 d6 bd 7c 94 55 3d ad 25 79 bd 69 5f f5 bc
       -0.1047808 0.05214356 -0.060826946 -0.029952722
0000b0 24 67 ed bd 1b f5 f3 3d cf e8 90 bc c8 17 80 bc
       -0.11591938 0.119119845 -0.017689137 -0.01563634
0000c0 4a e5 f6 bd 69 95 a2 3d 54 f1 65 bd b9 ca e1 bd
       -0.12055452 0.07938654 -0.05613835 -0.110249944
0000d0 5b 3c 46 be fc 93 4d 3e 79 6b de 3d ab 18 68 be
       -0.19358961 0.20075983 0.108603425 -0.2266566
0000e0 b5 a5 49 3b 5f c5 16 bc 49 f5 bd bd df e8 10 be
       0.0030768935 -0.00920233 -0.092753 -0.14151333
0000f0 d2 08 e8 3d 88 f2 81 bd 4c f1 85 bd df e5 95 be
       0.11329807 -0.06345087 -0.06540164 -0.2927694
000100 f9 c9 99 3b 6c 99 8c 3e cb 07 07 be 88 1b 96 3b
       0.0046932665 0.27460802 -0.13186567 0.0045809187
000110 fd d1 96 bc e2 e6 04 3e 81 67 29 3d 61 e5 45 be
       -0.018410677 0.129787 0.041358475 -0.19325782
000120 5a 9b be bd f3 ae 05 3e 26 7a 97 bb d5 5e 80 3d
       -0.09306975 0.13055019 -0.0046227155 0.06268088
000130 e6 a2 5e 3d be b4 27 be cb 27 12 bd 70 ba a5 3c
       0.05435457 -0.16377541 -0.03568248 0.020230502
000140 39 5b 78 bd f6 b4 2c 3d 88 e5 47 bc 04 f1 09 3e
       -0.06063387 0.042164765 -0.012200721 0.13470846
000150 35 ed a6 3d ad d6 8c bd fd 56 0a 3e c4 7d 76 bd
       0.081507124 -0.06876884 0.13509746 -0.060178533
000160 47 88 05 bd 5e a6 df b8 83 64 82 3c 3e a3 14 3d
       -0.032600667 -0.00010664457 0.015917068 0.036288492
000170 26 fb 72 3d 98 5c 1a 3e 6b f0 1c be 41 d4 d5 bd
       0.059321545 0.15074384 -0.15326087 -0.10440875
000180 40 35 1b bd d6 17 87 bc 6b 06 bb bc 65 02 2a bd
       -0.03789258 -0.016490858 -0.022830209 -0.04150619
000190 43 06 06 be c3 55 25 3d 89 ff e8 3d 5c ce a8 3c
       -0.13088326 0.040364992 0.113768645 0.020606212
0001a0 db 9e 2e bd 19 bc 04 3d 05 f0 55 3c d2 58 dd ba
       -0.042631965 0.032405946 0.013057713 -0.0016887432
0001b0 37 9a 04 bd d1 ae 06 3e 03 43 8c bd 39 7b eb bd
       -0.032373633 0.13152625 -0.06848719 -0.11498112
0001c0 d8 f2 89 3d 95 38 8f bd 79 0a 85 bc d2 55 9d bd
       0.06735772 -0.06993214 -0.016240345 -0.076823846
0001d0 90 38 01 3e 7f 31 aa 3d cb 24 05 3c bb 63 44 3e
       0.12619233 0.08310222 0.008126448 0.19178669
0001e0 84 d0 b3 3d 41 20 22 3e 10 9e 18 be 5d 1f fb 3d
       0.087800056 0.15832616 -0.14904046 0.122618414
0001f0 1f 9b ad bd c3 7c 1e be 5b 1e f9 3c d6 e9 dc 3d
       -0.084768526 -0.1547728 0.030409982 0.10786788
000200 af 32 6e bd ea 1f 2e 3f 38 64 7f 3e 22 b4 19 3e
       -0.058153804 0.68017447 0.24940574 0.15010121
000210 26 56 42 3d e2 44 02 3f bc 20 38 3e e1 5a 6f 3c
       0.04744544 0.50886357 0.17981237 0.01460907
000220 9f 93 20 3e 42 a2 8b 3d 0d eb 51 be 73 ee 4b 3d
       0.15681313 0.068180576 -0.20499821 0.04978795
000230 e8 7c f1 be a9 7b d7 bd 14 3d 50 be 2b 3a 80 bc
       -0.47165608 -0.10521633 -0.203358 -0.015652737
000240 8b 25 a1 be cd 3d 0b be 6b 1f 73 3d 75 fa 3f 3b
       -0.31473956 -0.13597794 0.059356134 0.002929357
000250 d5 a1 ee 3c 32 eb cc bd 03 c6 b2 b8 ba 31 5e 3b
       0.029129902 -0.100057974 -8.524584e-05 0.003390415
000260 61 ec e0 3c 27 4e a0 3e ef 26 9c 3f 97 9d 2d 3f
       0.027456464 0.31309626 1.2199382 0.6781859
000270 9e 75 0f be 3a d2 cb 3e 0a 27 13 3e 03 3e 02 bc
       -0.14009711 0.39808828 0.14370361 -0.007949355
000280 0e 51 ec 3d 16 4d 46 3f de 17 82 bd 35 0b 81 be
       0.115388975 0.77461374 -0.063522086 -0.25203863
000290 3e 38 24 3d 1b a5 1f 3e 51 22 10 be fa fe f5 bd
       0.0400927 0.15590326 -0.1407559 -0.120115235
0002a0 a6 cd b7 3e fe ea 42 bc c1 96 19 3e 1a 4d 97 3d
       0.35899085 -0.011896847 0.14998914 0.07387753
0002b0 7f 6c a1 be 0a f3 8c 3d b3 65 95 3c 04 86 1d 3e
       -0.31528088 0.068822935 0.01823697 0.15383154
0002c0 7a 7f b5 3d e9 6d ae bf 31 9c d6 bd 29 52 0a bd
       0.08862205 -1.3627292 -0.1047901 -0.03376976
0002d0 7a 5a 11 3e 3d d7 2d bc 04 da c5 3e a6 83 f6 3d
       0.1419467 -0.010610399 0.38642895 0.12036829
0002e0 d1 6e 26 bf 8d a3 68 be 7e 48 16 40 b1 8f 9f bd
       -0.6501284 -0.2271864 2.3481746 -0.07791079
0002f0 38 34 9d bd bb b5 fe 3e 15 30 dc 3d 04 12 04 3f
       -0.076759756 0.49748024 0.107513584 0.5158999
000300 53 e9 19 3e 30 b9 21 be 68 da 78 bd ff 5a c7 bc
       0.15030412 -0.157933 -0.060755163 -0.024335383
000310 42 8a ab 3d b0 de 3f 3d 42 0c e7 bd 10 8c 16 bd
       0.0837598 0.04684323 -0.11281635 -0.036754668
000320 e4 9f 04 3e 58 39 06 3d ae b5 21 bd ad e7 9b bd
       0.12951618 0.03276953 -0.039479904 -0.07612548
000330 cb cb 79 bd 7d 97 4a bd 44 b9 e1 3d d9 f4 02 3e
       -0.060985368 -0.049460877 0.11021665 0.12788714
000340 e2 be 15 3e 07 20 40 bd 26 84 fc 3b df 47 7b bc
       0.14623597 -0.046905544 0.007706183 -0.01533696
000350 ec af 0e 3e d5 30 54 3d f2 5d 34 3e 3c 48 ae 3d
       0.13934296 0.051804382 0.17613962 0.08509871
000360 aa ea 23 3c cc f8 46 be 43 3e d1 3c 0f 0d a6 bc
       0.010004679 -0.19430846 0.025542384 -0.020269899
000370 30 0a c1 3d 3a 52 29 be 6d d2 2f bd 39 2f 3c 3e
       0.09425771 -0.16535273 -0.042925287 0.18377389
000380 31 4b 35 be d9 0e c2 ba 67 e1 22 3d 7a 9b 90 3c
       -0.17704464 -0.001480545 0.03976574 0.017652262
000390 1d 01 2f 3d 1f 76 c3 3d f8 74 fb 3d 4b 72 ea 3d
       0.04272567 0.09544014 0.122781694 0.11447581
0003a0 2b 65 11 be ed c4 03 3d b8 dc ae 3d c6 12 1a 3e
       -0.14198749 0.032170225 0.085381925 0.15046224
0003b0 0b ca cb bc 78 d2 23 3e bd a7 66 3d fd 66 ee 3d
       -0.024876615 0.15998256 0.05631231 0.11640737
0003c0 da 1f 32 bd ed a3 65 3d 3e d1 e8 bd 7f dc ea 3c
       -0.043487407 0.056064535 -0.11368035 0.028669594
0003d0 b1 15 c1 3c ad d9 f9 3d 2b f5 43 3c b6 0a 5f bd
       0.023569914 0.121997215 0.011960308 -0.054453574
0003e0 e6 53 b4 3c 62 46 9b bd 82 0f bd 3d 8a b4 96 bd
       0.022012662 -0.07581784 0.092314735 -0.07358654
0003f0 62 87 a6 3d 0c 0d fe bc 80 af 99 3d 12 fb bd bd
       0.08131291 -0.03101208 0.07504177 -0.092764035

layer2.bias f4 [64]
000000 45 6a 04 3d 4b 08 c9 bc 35 2e a2 3e 53 8e c4 bd
       0.03232791 -0.024540087 0.31675878 -0.09597459
000010 5e cb c3 3d cb f8 71 be 41 dc 46 3d eb 4b 41 be
       0.095602736 -0.23630063 0.048549894 -0.18876617
000020 a6 26 32 3e ad 13 87 3d 2c 89 a9 3d cb 97 eb 3c
       0.17397556 0.0659555 0.082781166 0.028758904
000030 03 8d f5 bd a4 5e 5b bd 60 b2 04 3e 44 97 c1 3e
       -0.119897865 -0.053557053 0.1295867 0.3781072
000040 d8 97 1c be 0d 95 3a bd 57 d6 ee bd 6a f8 7b bd
       -0.15292299 -0.045552302 -0.11661976 -0.061516203
000050 e6 78 1a bc 77 0e cc be 9a 04 34 be 2f 8c e6 bd
       -0.0094282385 -0.39854786 -0.1757988 -0.11257207
000060 5b 03 c4 3b fa 9b d2 3d f8 e1 eb 3d 84 70 13 3c
       0.0059818453 0.102836564 0.115177095 0.008998994
000070 33 1e 79 bc 72 2a a2 bd e5 b5 52 3e 46 9f 40 bd
       -0.015204954 -0.07918252 0.205772 -0.047026895
000080 40 5d df bd c5 97 b5 bd 96 e9 58 3d 96 3d 00 be
       -0.10906458 -0.08866838 0.05295714 -0.12523493
000090 54 b8 45 bd 10 64 87 bd c9 89 36 be aa b6 13 3e
       -0.048271492 -0.06610882 -0.17825998 0.1442515
0000a0 e2 59 7c bd 4f 15 e9 3b ed 66 48 be a3 6d 40 3e
       -0.061609156 0.007113136 -0.19570513 0.18791823
0000b0 15 81 49 be 8c c6 e8 bc ad 79 41 be f3 ed 0f 3e
       -0.19678147 -0.028414987 -0.18894072 0.14055614
0000c0 76 3c 62 be c6 42 a1 3e 3b da c4 bd b8 ba 7a be
       -0.22093377 0.31496257 -0.09611937 -0.2448529
0000d0 90 da 3f 3c 94 39 b6 3c fd 16 e4 3d 67 35 b3 3b
       0.011709824 0.022244252 0.11137197 0.0054690125
0000e0 69 c9 48 3d 65 10 f1 3c 26 44 be 3c 05 e2 dc 3d
       0.049020205 0.029426763 0.023225855 0.10785297
0000f0 a9 23 dc 3c 68 e4 21 3e a8 60 49 bc b9 32 b7 bd
       0.026872473 0.15809786 -0.012291111 -0.089452215

layer3.weight f4 [64, 64]
000000 42 95 15 be 80 0d 22 bd ef 2b 1d 3e ac 48 c6 3d
       -0.14607719 -0.039563656 0.1534879 0.0968183
000010 65 46 fd bd 1e fe c1 bd f3 0c 84 3d f8 fa 62 bd
       -0.12366942 -0.09472297 0.06447782 -0.055415124
000020 2a 45 0e 3e cc b4 3b bd 04 36 16 3e f7 16 d9 3d
       0.13893571 -0.04582672 0.14669043 0.10600083
000030 39 49 19 3d ab 6c 15 3e ae be 23 3b 5e 2c 55 be
       0.037423346 0.14592235 0.002498548 -0.20817706
000040 7c 9b 06 3e 30 ce f1 3e 70 ac b4 bd 95 fc 43 be
       0.1314525 0.4722762 -0.08821952 -0.19139321
000050 dd f3 11 3d 5d 72 ff 3d 4d a0 3c 3d b5 16 91 bd
       0.035632957 0.12472985 0.046051312 -0.07084409
000060 6c 8f b3 3d 0c 30 7d 3d a0 80 87 3d 73 eb d6 3d
       0.0876759 0.0618134 0.0661633 0.10494127
000070 c1 23 3c bd aa 85 66 bc 6e 82 07 be d5 33 41 bd
       -0.045932535 -0.014069954 -0.13233349 -0.04716857
000080 f1 39 f0 3d e7 d4 42 bc 93 97 3c bd 70 a7 e3 bd
       0.117298014 -0.01189158 -0.04604299 -0.111159205
000090 d5 01 ec 3d 23 29 e9 3c 01 f4 20 3d cc 4f e9 3c
       0.11523787 0.028461998 0.0392952 0.028480433
0000a0 fc 93 02 3e 3b 7b 0b be c5 a4 b9 bd 0b 25 1e 3e
       0.12751764 -0.13621227 -0.090646304 0.15443818
0000b0 67 0e 26 be 03 80 e0 3d a4 47 3a be 2c c8 05 3e
       -0.16216432 0.10961916 -0.18191391 0.13064641
0000c0 48 ab 25 3c 2e 37 0e bc 9d 33 07 be b0 ab ea bd
       0.010111637 -0.008680148 -0.13203283 -0.11458528
0000d0 08 c0 20 3b e9 18 85 bd ed 29 85 be 2c 5d 08 3e
       0.0024528522 -0.06498892 -0.2600855 0.13316792
0000e0 6e cb 22 bc 2e 5b 24 3e cf c6 37 3e 8d 9f a4 3c
       -0.009936197 0.16050407 0.17946933 0.020095611
0000f0 f8 f8 76 3d 40 5e 88 bd a5 42 1e bd 62 fa 92 3c
       0.06029603 -0.06658602 -0.038637776 0.017941657
000100 34 0b 24 bb 4a f3 0b 3e 19 a0 60 3e a7 e2 55 3c
       -0.0025031092 0.13667026 0.21936072 0.013054526
000110 c9 c1 ee bd bd 57 43 be 7d ac 8c 3e f8 5a 9f bd
       -0.11658055 -0.19076438 0.27475348 -0.07781023
000120 21 ca 35 3e e4 68 5c 3d cc b2 7a 3d 42 39 e7 3c
       0.17752887 0.05381097 0.06120567 0.028225545
000130 97 ff 7d bd 93 38 08 3e b5 d3 99 bd 23 8f 4e 3c
       -0.062011328 0.13302831 -0.07511083 0.012607369
000140 f6 e5 21 be 81 11 42 3c 0b 19 8f 3c d6 40 ac bd
       -0.1581038 0.011844994 0.017467996 -0.08410804
000150 66 51 c7 bb b0 8d f4 bd 13 d6 81 3d 44 d0 f4 3b
       -0.0060827015 -0.11941087 0.063396595 0.0074711163
000160 24 14 2e 3e c7 07 06 be 84 78 37 bd 21 d4 b2 3d
       0.1699987 -0.13088904 -0.044792667 0.08731867
000170 7f e4 4b 3d 5b fd fb bc d7 60 39 be 47 13 42 3d
       0.049778458 -0.030760458 -0.18103348 0.047381666
000180 45 13 f1 bc 5c 53 bd 3d 6f 6f 0a 3e 99 b8 52 bd
       -0.029428134 0.09244415 0.13519071 -0.051445577
000190 1d db 9b bc 1e 69 11 be 67 86 15 3e 1e 61 9d bc
       -0.01902538 -0.14200255 0.14602052 -0.019211348
0001a0 de 33 a1 3d ac 89 5f 3d bb 2f 5f bd 5a 56 1f 3e
       0.07871221 0.054574654 -0.05448888 0.15560284
0001b0 1f c3 54 3d 2d a7 1a 3e eb 94 3d be f9 74 4c 3d
       0.051943894 0.15102835 -0.18513839 0.04991624
0001c0 9d f2 e2 3d 5c a1 06 be f7 60 08 3e 2f b6 14 be
       0.11081431 -0.13147491 0.13318239 -0.14522623
0001d0 e3 94 b2 bc 48 b1 9f 3b bc 90 02 be 33 28 e0 3d
       -0.02179951 0.0048734285 -0.12750524 0.109451674
0001e0 ca 66 03 be 80 27 3c be 1d 50 c7 bb f7 0c ab bc
       -0.1283218 -0.18374443 -0.0060825483 -0.020880206
0001f0 6a 12 e7 3d 6f fb 08 bd 85 aa f5 3d 9f 14 04 3e
       0.11282809 -0.03344291 0.11995415 0.12898491
000200 83 cd 88 3d bb 75 e0 bd a3 fb ab 3c 49 83 01 be
       0.06679823 -0.10959955 0.020994013 -0.12647738
000210 cf b5 36 be fb a3 5a 3d 40 08 ad 3d 98 98 cc 3d
       -0.17842792 0.05337904 0.08448839 0.099900424
000220 51 11 64 3c 96 fc 76 3c df b6 26 3e 10 f2 99 3d
       0.013920144 0.01507487 0.16280697 0.07516873
000230 ee be 28 3d 90 3c 06 be a0 3f a5 3c 24 d2 ea bb
       0.04119771 -0.1310904 0.02017194 -0.007166164
000240 23 41 06 3e 49 28 37 3e 35 51 6d bd e9 d7 fe bd
       0.13110785 0.17886461 -0.057938773 -0.12443525
000250 16 c1 b6 bd 40 73 b7 bb 15 d6 ef bd 8c e3 60 3d
       -0.08923547 -0.0055984557 -0.11710755 0.054904506
000260 14 cb f4 bd 17 53 4c bd 75 1b 55 3d 1a 84 35 3d
       -0.119527966 -0.04988393 0.05202814 0.044315435
000270 b8 d5 0f be 0d 53 51 3a ec 7c 0a be 84 24 29 bd
       -0.14046371 0.0007985093 -0.13524216 -0.04129459
000280 a0 d3 ee 3d e1 d3 89 bb bc bd 83 3d 25 81 d3 bd
       0.11661458 -0.004206166 0.06432673 -0.10327367
000290 dc 08 58 3d 1f bf 11 be 0f fb 31 3d 73 a3 08 3d
       0.052742824 -0.14233063 0.04345232 0.033359002
0002a0 a6 45 5f 3e 33 92 30 bd 32 30 d4 3d f6 fc c3 bd
       0.21803913 -0.043108176 0.10360755 -0.09569733
0002b0 e6 30 bc bc 8a df 07 3d 7a 4a a9 3c d7 68 ef 3d
       -0.022972535 0.033172168 0.020665396 0.116899185
0002c0 95 13 93 3d 77 a0 a4 be 4f b0 3f bd a8 ca a9 3c
       0.07181469 -0.32153675 -0.046799 0.020726517
0002d0 a6 40 a5 bc cd 10 20 3d 60 d1 f9 bd 3f 7f 1f 3e
       -0.020172428 0.039078522 -0.12198138 0.15575884
0002e0 a7 7a 7b bd 20 4e c5 3b 16 50 21 3e 82 23 1b bc
       -0.061396267 0.006021276 0.15753207 -0.009468915
0002f0 62 29 4f 3d fb 5f 4d 3d d1 b8 88 bd ff 82 72 bd
       0.050576575 0.050140362 -0.06675876 -0.05920696
000300 73 7a 8a bc a1 9f d0 3d 4d a6 92 be e5 98 54 3d
       -0.016904091 0.10186697 -0.28642502 0.051903624
000310 1d b6 23 3e af 47 12 be 75 63 40 bd fa 9c c6 3d
       0.1598744 -0.14285158 -0.04696985 0.0969791
000320 d6 80 0f 3c 05 e7 38 3d 26 81 10 be aa 51 eb bd
       0.008758744 0.045142192 -0.14111766 -0.114901856
000330 7a 2d 43 3d 24 d7 15 3e d9 81 f0 bd c7 01 83 3e
       0.04765079 0.14632851 -0.117435165 0.25587294
000340 9c e9 79 bd d0 af ae be 46 b4 6c 3d fb ca f1 3d
       -0.061013803 -0.3411851 0.05778911 0.118062936
000350 7a 65 d8 bc 84 a6 ec bd 73 84 9b bd c1 60 ee bd
       -0.026415575 -0.11555198 -0.07593622 -0.11639548
000360 bf 35 e6 3d 70 01 35 bd cc 75 76 bb 02 a3 1e be
       0.1124072 -0.044190824 -0.0037606834 -0.1549187
000370 3b 13 c4 bb 2b a0 0b 3e b7 d9 38 3e 45 42 0a be
       -0.0059837378 0.13635318 0.18051802 -0.13501842
000380 e3 fd 51 be 27 47 8c bd 64 3c 85 bd 07 4b 5d be
       -0.20507006 -0.06849509 -0.06505659 -0.21610652
000390 bc 8c 18 be 29 89 b9 bb e9 f9 9a bc 2f 72 00 3e
       -0.14897436 -0.0056621027 -0.018917995 0.12543558
0003a0 13 c5 64 be 3d 7e b5 bc a9 bc 8c bd 42 2e 69 3d
       -0.22340803 -0.022154922 -0.068719216 0.05692888
0003b0 ba db 56 3e af 6f f0 3d 11 1e 44 bd 29 d5 9b bd
       0.20982257 0.11740052 -0.047880236 -0.076090164
0003c0 55 70 fd bd b4 45 84 3e 08 3b 3c bc 76 1b 4f 3e
       -0.12374941 0.2583443 -0.0114886835 0.2022532
0003d0 a7 5f 87 bd 70 41 11 3e cc ef 53 3e ae 1f 8a bd
       -0.06610041 0.14185119 0.20696944 -0.06744324
0003e0 fc 7c d7 3a 52 d6 91 3d ce 66 8d 3d 5d 76 82 bd
       0.0016440446 0.071209565 0.06904374 -0.06370232
0003f0 af f4 ea 3b 2b 28 95 3d 22 44 82 bc ee de 73 bc
       0.007170282 0.07283052 -0.015901629 -0.014884694

layer3.bias f4 [64]
000000 b4 9f a3 bc f7 ad 35 3d a6 70 25 bd 2e ec 50 3e
       -0.019973613 0.04435536 -0.040390633 0.20402595
000010 f7 20 d9 3d 91 5e a0 bd 6c 10 0b 3c f2 5a 7b 3c
       0.10601991 -0.07830537 0.008487802 0.015341507
000020 f8 47 15 bd 7e 7f b5 bb 27 cd 60 bc db a2 5a 3d
       -0.036445588 -0.00553888 -0.013720787 0.053377967
000030 17 42 eb bd 33 3c 57 3d 2f a4 99 bd d5 15 ec 3c
       -0.11487215 0.052547645 -0.07502019 0.028819004
000040 bc 49 84 bc fa 20 09 be 95 6e 02 3d 21 a4 21 3d
       -0.01614844 -0.13391486 0.03184374 0.039463166
000050 b0 21 d5 bc 89 b7 64 3d f5 b4 73 3d ad 00 23 3c
       -0.02601704 0.055839095 0.059498746 0.009948892
000060 fd 48 83 3d ed f8 ae bc f1 8b 54 3d f4 a7 0d be
       0.06410406 -0.021358931 0.05189127 -0.138336
000070 37 ef 82 3d 7d 45 ec bd b0 16 4e 3e 95 a4 e7 3d
       0.06393283 -0.11536691 0.20125842 0.113106884
000080 35 f6 ca bd 23 dd 9f 3c 7a b3 63 3d 30 ff 5a bd
       -0.099102415 0.019514626 0.055591084 -0.053466022
000090 ec 46 f7 3c 6b 6c 64 bc e4 95 e1 3c f5 d2 44 bd
       0.030185185 -0.0139418645 0.027537294 -0.048052747
0000a0 67 b4 0f be 4c a5 81 bc 16 4b 8e bd cb 69 f5 bc
       -0.14033662 -0.01582589 -0.06947915 -0.029957673
0000b0 d6 05 93 3d a8 6c ba 3d 76 35 4e 3d 71 b6 9c 3d
       0.071788475 0.09102756 0.050343953 0.076519854
0000c0 6a 01 d5 3d 7b 3d 9f 3d a2 4a aa bd d2 73 9e bd
       0.1040066 0.07775398 -0.08315016 -0.07736935
0000d0 73 6e ef bd 9c a9 ae 3d 77 5c 27 be 31 23 d4 bd
       -0.116909884 0.08528444 -0.16343866 -0.10358275
0000e0 3d b9 94 bc af 3f 1a be 83 3a d7 3d 34 c3 06 3e
       -0.018154735 -0.15063356 0.10509207 0.13160402
0000f0 93 75 23 3e b7 23 ad bd c1 f7 96 bd 44 c4 10 3e
       0.1596282 -0.08454078 -0.07371474 0.1413737

layer4.weight f4 [1, 64]
000000 74 da d0 3e 73 91 8e 3e 08 12 47 3e 6a 2c f7 be
       0.40791667 0.27845344 0.19440472 -0.48276073
000010 e5 7c ae be c4 28 62 3e 6a 9d e6 3e b1 97 e6 be
       -0.34079662 0.22085863 0.45041972 -0.45037606
000020 f0 6d f4 3e 93 ae 6c be e5 4d c1 3e c5 b5 6d bd
       0.47740126 -0.2311347 0.3775474 -0.058034677
000030 7d 12 a2 be ef 42 30 3e 81 e4 68 3e a6 2d 9a be
       -0.3165473 0.17213033 0.22743417 -0.30112952
000040 91 fd 9d 3e 6c 2b a2 be 95 ec 6b bf c9 bb 9e 3d
       0.30857518 -0.31673753 -0.9215787 0.07750661
000050 59 ff 55 be 3e 98 e3 be b1 9c 50 3c c1 07 d9 be
       -0.20898189 -0.4445209 0.012732671 -0.42388728
000060 fb ba cf be 4b 2d b6 be ed 69 e4 3e ae 86 a4 be
       -0.40572342 -0.3558143 0.44612065 -0.32134002
000070 40 d4 52 be d3 af d0 be 5c 0c 69 be a6 ab b9 3e
       -0.2058878 -0.40759143 -0.22758621 0.3626377
000080 77 f8 8e be 75 e9 2c be 2d 54 41 3f 6e e6 b0 3e
       -0.2792394 -0.16885932 0.7551907 0.34550804
000090 d1 2b b0 be 6c 7c da 3d 6d fa dd 3e bc 9b 0c bf
       -0.3440843 0.10668263 0.43355122 -0.5492513
0000a0 76 dc 8a 3e d2 94 c0 be d7 38 a6 be 57 8c af be
       0.27121323 -0.3761354 -0.3246524 -0.34286758
0000b0 b8 af ee be 9d 52 83 3e 05 41 d6 be 07 ae db 3e
       -0.46618438 0.25648966 -0.4184648 0.4290621
0000c0 cd 51 9d 3e 81 b8 fb 3d a3 bf e2 3e ce 34 0f 3e
       0.30726472 0.12291051 0.44286832 0.13984987
0000d0 69 ea ba 3e e3 0e 83 be 40 3e 88 be e4 a7 ec 3e
       0.36506966 -0.25597295 -0.26609993 0.4622184
0000e0 c0 43 75 3e c5 63 2a be d7 5b 44 be f9 88 f7 3d
       0.23951626 -0.16639622 -0.19175659 0.12086672
0000f0 5a 1b c0 be 2b ff f0 bd 48 03 b3 be 54 94 0f 3f
       -0.37520868 -0.117674194 -0.3496344 0.56085706
