PINN/lib/weights/PINN_Model_1D_1D_2source.pth (torch, 38161 bytes, 7 tensors)

layer1.weight f4 [64, 2]
-0.55728483 -0.6333346 0.26116174 0.5309912 -0.470942 -0.9139212 0.7230959 0.78238976
-0.06168626 0.09280976 -0.18874383 0.22687954 0.7527702 0.38556775 0.50939244 0.3721354
-0.028430112 -0.72877777 -0.738512 0.5750469 0.5710096 -0.7237095 -0.08513427 0.63293654
0.6931307 0.5127814 -0.3294601 0.5384848 0.6789461 -0.73341775 -0.87121606 0.94085974
0.5598164 -0.7020297 0.7635402 0.7677433 0.28812844 0.78470147 0.32820517 -0.4156305
-0.017889434 -1.0297102 0.15950309 -0.059351534 -0.21989548 0.78198683 0.66379327 0.017684733
0.628632 -0.8213846 0.56911707 0.49970675 -0.65525573 0.50865036 -0.63016045 -0.8957219
0.589269 0.8896441 -0.41938266 0.36059815 0.16416872 0.19868042 0.35084754 0.3010143
0.44846824 -0.6594586 -0.6160613 0.85703427 0.70204365 0.8764226 -0.43244448 0.66885686
0.377104 0.8144622 0.051741738 -0.15260755 -0.124170415 -0.8536733 0.534099 -0.74400663
-0.8167437 0.29976904 0.2249219 0.8282978 0.77373916 0.7116717 -0.62452096 -0.856486
-0.32324752 -0.3763473 0.6528685 -0.2986036 -0.29244253 0.56565696 -0.4063739 0.3187944
0.5893729 -0.92175734 -0.53123736 0.60505754 -0.59109217 0.15490681 0.03955711 0.3789903
0.6692151 0.71690625 -0.04945207 0.1857156 0.7252373 -0.51859164 0.582572 0.7770759
0.5273771 0.7926933 -0.4328294 0.84839314 -0.4138901 0.6044212 0.7485517 -1.0391427
-0.6758248 0.1308974 0.1700946 -0.5671837 -0.6100523 -0.2771537 -0.3689132 0.7753726
00000000: 38aa 0ebf 3722 22bf feb6 853e 0aef 073f
00000010: 4f1f f1be bdf6 69bf d01c 393f b24a 483f
00000020: bbaa 7cbd 0b13 be3d 1046 41be 1c53 683e
00000030: 8cb5 403f 2369 c53e 8b67 023f 8888 be3e
00000040: 44e6 e8bc 2e91 3abf 1f0f 3dbf 4636 133f
00000050: af2d 123f 0745 39bf e05a aebd 2108 223f
00000060: 0371 313f a445 033f ffae a8be 24da 093f
00000070: 69cf 2d3f 44c1 3bbf 0408 5fbf 2fdc 703f
00000080: 2150 0f3f 38b8 33bf 5f77 433f d38a 443f
00000090: 9285 933e 32e2 483f 820a a83e 85cd d4be
000000a0: dd8c 92bc 8bcd 83bf c754 233e 981a 73bd
000000b0: 482c 61be 4a30 483f 5bee 293f 93df 903c
000000c0: 07ee 203f 4346 52bf a8b1 113f 90d9 ff3e
000000d0: d7be 27bf e936 023f 3252 21bf 084e 65bf
000000e0: 55da 163f b7bf 633f 53b9 d6be 52a0 b83e
000000f0: d81b 283e e172 4b3e 4aa2 b33e 8c1e 9a3e
00000100: a19d e53e 47d2 28bf 31b6 1dbf 9966 5b3f
00000110: 22b9 333f 3b5d 603f 5d69 ddbe 343a 2b3f
00000120: c713 c13e 9880 503f 25ef 533d 2745 1cbe
00000130: 0f4d febd 558a 5abf b6ba 083f 3877 3ebf
00000140: 1d16 51bf 547b 993e ed51 663e 530b 543f
00000150: c513 463f 1e30 363f 9be0 1fbf ab42 5bbf
00000160: b380 a5be 98b0 c0be 6422 273f 92e2 98be
00000170: 07bb 95be e5ce 103f 3d10 d0be 0539 a33e
00000180: 24e1 163f 4af8 6bbf 2cff 07bf 0de5 1a3f
00000190: d151 17bf e49f 1e3e a306 223d 040b c23e
000001a0: ae51 2b3f 2b87 373f 418e 4abd 3b2c 3e3e
000001b0: 27a9 393f 6cc2 04bf 7023 153f 72ee 463f
000001c0: 3002 073f f3ed 4a3f d19b ddbe 4b30 593f
000001d0: 67e9 d3be 59bb 1a3f 16a1 3f3f a102 85bf
000001e0: db02 2dbf f809 063e 472d 2e3e f332 11bf
000001f0: 632c 1cbf 17e7 8dbe 31e2 bcbe d27e 463f

layer1.bias f4 [64]
0.29420543 0.20427854 0.78129697 -0.4032538 0.43602642 0.5016309 -0.6463523 -0.21732429
0.10352815 0.7639011 -0.5625719 0.30711356 -0.8029545 -0.50074244 -0.6085466 0.5896874
0.76076686 0.4917269 0.35761178 0.5044266 0.5361134 -0.6825156 -0.14174041 0.7578768
0.104493044 0.017391052 0.41786888 0.33662137 -0.17603573 0.30296892 -0.6754104 0.6018789
0.73261446 0.25726837 -0.75348383 -0.5698051 -0.043612063 0.6369708 0.2205241 0.7545865
-0.22290486 -0.38700143 0.40352148 -0.24466449 -0.4006726 0.5772385 0.46313265 -0.7492296
0.25345942 -0.1068239 -0.5708942 -0.20372148 0.37470534 -0.68807983 -0.58304083 -0.478861
-0.6219293 -0.75719315 0.7025143 0.13539015 0.47043684 0.29476842 -0.6676529 -0.6592546
00000000: 18a2 963e 652e 513e 1403 483f 4877 cebe
00000010: db3e df3e e26a 003f 5877 25bf 428a 5ebe
00000020: 9106 d43d 068f 433f b604 10bf fd3d 9d3e
00000030: 6d8e 4dbf a830 00bf b6c9 1bbf c1f5 163f
00000040: 9ec1 423f a1c3 fb3e e418 b73e 1a22 013f
00000050: ba3e 093f 58b9 2ebf 6624 11be 3704 423f
00000060: 7300 d63d ae77 8e3c e9f2 d53e a359 ac3e
00000070: b642 34be be1e 9b3e b2e7 2cbf bc14 1a3f
00000080: 9f8c 3b3f aeb8 833e 51e4 40bf bfde 11bf
00000090: 90a2 32bd 8510 233f 12d1 613e 952c 413f
000000a0: 2c41 64be 0d25 c6be 5e9a ce3e 5489 7abe
000000b0: f624 cdbe e7c5 133f b91f ed3e 83cd 3fbf
000000c0: 6fc5 813e 7dc6 dabd 1f26 12bf 5d9c 50be
000000d0: 61d9 bf3e 0026 30bf 2a42 15bf 452d f5be
000000e0: c236 1fbf 69d7 41bf fad7 333f b7a3 0a3e
000000f0: 19dd f03e e3eb 963e 4deb 2abf e9c4 28bf

layer2.weight f4 [64, 64]
-0.048218135 -0.07833718 0.17004748 0.0057563926 -0.13383928 -0.12881792 0.028178891 -0.13237923
-0.030714253 -0.0716194 0.06730257 -0.02831497 -0.22904305 0.07889502 0.11045746 0.032359716
-0.07242993 0.17374909 -0.11920113 -0.1139839 0.03811359 -0.018873028 -0.04289593 -0.06553203
-0.028873859 -0.08295226 0.05673455 -0.090387546 0.040153 -0.09151386 -0.046222337 -0.10055607
0.06247526 0.08616149 -0.17632855 0.06255918 -0.031068765 -0.09579168 -0.03203776 -0.100159876
-0.026488509 -0.1039222 0.0016558263 -0.095669456 0.15002494 0.009210765 -0.1526022 -0.009576272
-0.025838079 -0.06443337 -0.030233672 -0.06217996 0.17158853 -0.087178364 0.03286819 -0.011436775
-0.07318757 0.13133955 -0.021395557 0.049159437 0.046735827 0.11962737 0.038038652 -0.04226565
0.08999117 -0.11486507 0.11701341 0.010124447 -0.1739731 0.09531928 -0.00702148 -0.16392058
0.116751306 0.20401989 -0.03587853 -0.010098624 -0.19091825 -0.036287725 -0.15340951 -0.01703122
-0.088195086 0.07254181 0.016066851 0.036668625 0.094092295 -0.08646401 0.056768052 -0.021235138
-0.041205097 -0.05789378 0.11127542 0.043697614 -0.056923594 -0.046526104 0.055332556 -0.07913902
0.011531265 0.022144452 -0.233486 -0.023344273 0.05181796 -0.06156157 0.17210606 -0.02114141
0.13088298 -0.07574356 0.12665312 -0.0835701 0.12753494 0.0057071666 -0.0895213 -0.092861876
-0.07672595 0.0028757518 0.003462194 0.091371395 0.12635222 0.16125914 -0.103176184 -0.112512656
-0.11523735 0.058251664 -0.055055384 0.08182417 0.07245961 -0.015926871 -0.051000122 -0.004775809
-0.27632463 -0.04332062 -0.16766933 0.23740366 0.09669133 0.07724294 0.16074196 0.1854079
-0.073006056 -0.0722762 0.09684241 -0.09268476 0.18464784 -0.16467606 0.14174256 0.004020425
0.21643741 0.019962588 0.10797663 0.18338022 -0.122951366 -0.05896383 -0.05056244 -0.05524369
0.12590577 0.10873274 0.013776542 -0.21646817 0.0035185309 0.010244252 0.10227736 -0.0100357905
0.28724858 -0.04553015 0.41525248 -0.051241893 -0.049347594 -0.060242996 -0.121976435 0.16627252
-0.13241665 0.15136532 0.1429738 -0.026369922 -0.17421167 0.24462938 -0.07940125 -0.1889662
0.06113827 0.012418131 0.0040185973 -0.086390525 -0.073941484 0.063688576 0.008120168 0.27048534
0.20926036 -0.14925522 0.11368932 0.13864325 -0.093697526 0.050025824 -0.092121266 -0.20806268
0.042186834 0.14742276 -0.12288434 0.10048806 0.032222945 0.21889614 0.012709562 0.0719662
-0.12582353 0.09510382 0.040503215 0.18898675 -0.03965968 0.08959675 0.03586403 -0.0077850507
-0.0334882 -0.08063073 0.1471847 0.087417096 0.025376817 -0.08904018 0.05761951 -0.027268607
0.109194554 -0.000543996 0.082769826 -0.13075516 -0.1054699 -0.049555115 -0.20195968 0.054181043
-0.038408983 -0.0415204 0.0069482927 0.17692134 -0.021126885 0.1518545 0.06818982 -0.1723234
0.12611799 -0.008733542 0.08215357 -0.034164757 -0.16546206 -0.11425596 0.013791783 -0.03798947
0.062317323 0.15772766 0.095118776 -0.12916945 -0.08138239 -0.15191442 0.06869303 0.08572087
-0.102877244 -0.032209333 0.14469361 0.01444859 -0.00013875253 -0.0070672883 -0.041766517 0.045667447
00000000: 6180 45bd 3e6f a0bd ed20 2e3e 1fa0 bc3b
00000010: 2a0d 09be d8e8 03be 6bd7 e63c 6c8e 07be
00000020: 759c fbbc 31ad 92bd eed5 893d ccf4 e7bc
00000030: 438a 6abe b693 a13d 8537 e23d 9f8b 043d
00000040: 2556 94bd 48eb 313e b91f f4bd 6470 e9bd
00000050: ff1c 1c3d 9c9b 9abc a5b3 2fbd a835 86bd
00000060: df88 ecbc e0e2 a9bd 7d62 683d 1b1d b9bd
00000070: 7977 243d 9e6b bbbd a253 3dbd 57f0 cdbd
00000080: 0fe6 7f3d 6f75 b03d 798f 34be 071f 803d
00000090: ec83 febc 6e2e c4bd 073a 03bd 9f20 cdbd
000000a0: 6efe d8bc 2ad5 d4bd 5008 d93a 59ee c3bd
000000b0: 23a0 193e c0e8 163c c043 1cbe cce5 1cbc
000000c0: 61aa d3bc a5f5 83bd 9bac f7bc 6ab0 7ebd
000000d0: e7b4 2f3e 928a b2bd cca0 063d 5061 3bbc
000000e0: 5de3 95bd e07d 063e bc45 afbc 685b 493d
000000f0: 116e 3f3d 32ff f43d 6bce 1b3d bf1e 2dbd
00000100: 4a4d b83d 613e ebbd baa4 ef3d 02e1 253c
00000110: 0126 32be c136 c33d 7114 e6bb ccda 27be
00000120: 4f1b ef3d 97ea 503e 5ef5 12bd b374 25bc
00000130: 1380 43be 70a2 14bd 6217 1dbe 0f85 8bbc
00000140: a09f b4bd cd90 943d a19e 833c d731 163d
00000150: 76b3 c03d 0b14 b1bd 9e85 683d 50f5 adbc
00000160: adc6 28bd 0722 6dbd 5ee4 e33d 45fc 323d
00000170: b728 69bd 2892 3ebd 64a4 623d a313 a2bd
00000180: a2ed 3c3c 4868 b53c f416 6fbe 7d3c bfbc
00000190: 123f 543d fc27 7cbd 923c 303e c030 adbc
000001a0: 3006 063e 711f 9bbd 5bb1 013e cd26 abbd
000001b0: 8598 023e 2f03 bb3b f156 b7bd 5e2e bebd
000001c0: 7f22 9dbd 1c77 3c3b fae5 623b ed20 bb3d
000001d0: 7a62 013e 1e21 253e 094e d3bd 096d e6bd
000001e0: 8f01 ecbd 4c99 6e3d c181 61bd 6e93 a73d
000001f0: b465 943d 1279 82bc 81e5 50bd 647e 9cbb
00000200: 6c7a 8dbe f670 31bd 82b1 2bbe f219 733e
00000210: 1b06 c63d 8c31 9e3d 8a99 243e 92db 3d3e
00000220: 3384 95bd 8b05 94bd 5055 c63d 82d1 bdbd
00000230: 5314 3d3e d7a0 28be f624 113e c5bd 833b
00000240: c5a1 5d3e 9588 a33c da22 dd3d 06c8 3b3e
00000250: edcd fbbd 0f84 71bd 901a 4fbd 3547 62bd
00000260: 71ed 003e 45af de3d 01b7 613c d5a9 5dbe
00000270: 2797 663b 82d7 273c cb76 d13d 286d 24bc
00000280: 3f12 933e d37d 3abd f99b d43e 05e3 51bd
00000290: b420 4abd 5cc1 76bd c8ce f9bd 5843 2a3e
000002a0: 3b98 07be 83ff 1a3e b967 123e bc05 d8bc
000002b0: 8b64 32be 2080 7a3e 1f9d a2bd 5b80 41be
000002c0: 1f6c 7a3d 6b75 4b3c 70ae 833b 84ed b0bd
000002d0: a26e 97bd 286f 823d 740a 053c 0e7d 8a3e
000002e0: 5948 563e 5cd6 18be f2d5 e83d 7ff8 0d3e
000002f0: 7de4 bfbd e1e7 4c3d 13aa bcbd 620e 55be
00000300: 1acc 2c3d fef5 163e c9aa fbbd afcc cd3d
00000310: 35fc 033d 4f26 603e c43b 503c 0463 933d
00000320: e2d7 00be cbc5 c23d b3e6 253d be85 413e
00000330: 3072 22bd 807e b73d 29e6 123d bd19 ffbb
00000340: ec2a 09bd b921 a5bd 96b7 163e bc07 b33d
00000350: 0be3 cf3c b35a b6bd 6f02 6c3d 6a62 dfbc
00000360: 65a1 df3d f49a 0eba 3a83 a93d aee4 05be
00000370: 9a00 d8bd 4efa 4abd 85ce 4ebe f1ec 5d3d
00000380: bd52 1dbd 4c11 2abd 81ae e33b de2a 353e
00000390: 4a12 adbc bf7f 1b3e 1ba7 8b3d 8c75 30be
000003a0: 1325 013e 2117 0fbc 2240 a83d 58f0 0bbd
000003b0: e36e 29be 07ff e9bd eef6 613c d99a 1bbd
000003c0: 7340 7f3d 5c83 213e a2cd c23d ff44 04be
000003d0: cfab a6bd 748f 1bbe eeae 8c3d 6c8e af3d
000003e0: 4eb1 d2bd efed 03bd 902a 143e c7b9 6c3c
000003f0: 197e 11b9 b694 e7bb 5e13 2bbd ca0d 3b3d

layer2.bias f4 [64]
-0.09017793 -0.14694363 0.16476282 0.2479574 -0.30917943 -0.06280376 0.096683756 0.07756157
0.01279651 -0.07852518 0.29198 -0.09503159 0.16890246 -0.059811566 -0.17710745 -0.122190624
-0.15177475 0.08502061 -0.22377338 -0.22063886 -0.24349108 -0.19244303 -0.20051537 0.08513685
0.032826018 -0.13056664 -0.033913087 -0.04272283 0.20377944 0.09440238 -0.023445468 0.070469365
0.19022699 0.15832195 -0.0120878825 -0.16343856 -0.095338605 -0.22005332 -0.11175838 0.09870327
-0.23398937 -0.0885271 0.11521981 -0.18895458 -0.20882897 -0.17269017 -0.15871452 0.06667354
-0.23853062 0.110026404 -0.18549828 -0.009054515 0.1665247 -0.14395995 0.03272463 0.17737918
-0.055196628 -0.23957027 0.16696306 0.05780201 -0.12814534 0.14899758 -0.20459878 0.13498628
00000000: 35af b8bd 6478 16be 96b7 283e 8be8 7d3e
00000010: c44c 9ebe 429f 80bd 2202 c63d 9ad8 9e3d
00000020: 74a8 513c cfd1 a0bd 677e 953e ec9f c2bd
00000030: c4f4 2c3e f9fc 74bd a85b 35be 143f fabd
00000040: d76a 1bbe 491f ae3d d924 65be 27ef 61be
00000050: ba55 79be c90f 45be e753 4dbe 3b5c ae3d
00000060: 9374 063d 43b3 05be 73e8 0abd 22fe 2ebd
00000070: 8fab 503e 0956 c13d b610 c0bc 3e52 903d
00000080: ddca 423e 261f 223e 410c 46bc 705c 27be
00000090: e340 c3bd a855 61be 94e1 e4bd f124 ca3d
000000a0: e99a 6fbe b24d b5bd 5df8 eb3d 4f7d 41be
000000b0: 43d7 55be b1d5 30be 0f86 22be 238c 883d
000000c0: 5f41 74be 8655 e13d 43f3 3dbe 6359 14bc
000000d0: 7385 2a3e 3d6a 13be 430a 063d e3a2 353e
000000e0: dc15 62bd e951 75be 5df8 2a3e cdc1 6c3d
000000f0: 8838 03be d292 183e 5882 51be d839 0a3e

layer3.weight f4 [64, 64]
-0.12541889 0.18020786 0.039833546 0.018142642 -0.02951308 0.11058431 -0.030039117 0.2109631
-0.008917789 -0.09281408 -0.06746621 -0.078383975 0.122083634 -0.0021767616 -0.059854094 -0.022567011
-0.113821514 7.292229e-05 0.05089883 0.09130884 -0.08803708 -0.08695738 0.061589204 -0.16577147
-0.12619579 -0.08769951 -0.03717773 -0.12530652 0.09097275 -0.13695455 0.0762309 0.18055049
-0.07642208 -0.13774586 0.2175385 0.057939585 0.075003795 0.0071933432 -0.06582096 -0.067376055
-0.13285844 -0.038700137 0.047517862 -0.16093266 0.1785098 0.0034765943 -0.06907031 -0.05173795
-0.029962134 -0.07904414 0.0820594 0.030855054 0.117689684 0.10566786 -0.07177973 -0.049829334
-0.041490003 0.1393417 0.014555648 -0.03747548 -0.15308936 -0.10147283 0.1109044 -0.06174309
-0.07915729 0.14387882 -0.22739366 -0.0770567 -0.011320637 -0.13325398 0.13639164 -0.04037208
0.035090823 -0.046884708 -0.31946492 -0.0977336 0.15660948 0.045459002 -0.106344916 0.15643604
-0.15652475 -0.055307187 0.090988986 0.21290565 -0.0022005078 0.05352422 -0.035513453 0.04229579
0.1372957 0.114887945 -0.1620859 -0.034730814 -0.038087748 -0.15392573 0.11053236 0.1604853
-0.09933424 -0.0013397131 0.081595436 0.10522747 0.06593277 0.20428324 0.069513515 -0.108857535
-0.1657517 0.036695737 0.08047917 -0.08629375 -0.14887796 0.1386671 -0.054421794 -0.21020861
0.10419981 -0.016018512 0.036565732 -0.099461086 -0.028264835 -0.041036997 -0.020524746 0.08174495
0.038538445 0.010950113 -0.050819486 0.013629684 -0.12015394 -0.07026402 0.1590252 -0.1900092
0.053626 0.12762438 -0.027644055 -0.043852426 0.08847194 0.0023604655 0.030436076 0.12373641
-0.06738435 -0.08985856 -0.045090973 0.02687663 0.09773859 -0.09647797 -0.16079907 -0.004401583
-0.017612003 0.06991077 0.14792548 0.15210323 0.046965174 -0.026550509 0.06563939 -0.021376317
0.07148545 0.12969531 -0.106659584 0.032682717 -0.09947057 0.029487826 -0.087283514 0.1491129
0.0033662915 -0.20383182 0.18379329 -0.017659534 0.013909919 0.1301446 0.07283937 0.119132
-0.20690994 -0.0038049337 0.09565127 -0.047500808 0.02683592 -0.095288455 0.09748513 0.049226917
0.12954147 -0.0047558425 0.05738658 0.13438986 0.057820234 0.0013171644 0.10521905 -0.13748717
-0.09218186 -0.05778035 -0.111775994 0.01975868 -0.0057186037 -0.19058302 0.1969758 0.009967399
-0.041854784 -0.12378585 -0.08593554 -0.08808763 0.053639807 -0.11801022 -0.120475695 -0.23322958
0.18799525 0.17845894 0.051170312 0.059801765 -0.009088475 0.17348199 0.20612401 0.014733098
0.16845168 0.03342294 0.04260181 0.08115492 0.11866679 0.024278829 0.07768271 -0.1622218
0.049815964 -0.0007885695 -0.017316349 0.15995644 -0.060688425 -0.04050594 -0.0762079 -0.2606572
0.0074133193 0.17178161 -0.15799552 -0.05001314 0.049608737 -0.060298305 0.01756716 -0.055444423
-0.03177498 -0.03081031 -0.093708836 0.076676875 -0.066189006 0.13532929 -0.0052799997 0.12819912
0.038933866 -0.10267077 0.0321906 -0.07462254 0.06995536 -0.07921141 0.08246885 -0.10308402
-0.05173537 0.0512197 0.11518134 -0.20357831 0.002513066 -0.059618622 -0.29668352 -0.084684975
00000000: cf6d 00be 6988 383e 8028 233d e19f 943c
00000010: 6ac5 f1bc 077a e23d 9814 f6bc b606 583e
00000020: eb1b 12bc 4f15 bebd b92b 8abd c787 a0bd
00000030: fc06 fa3d 00a8 0ebb 9129 75bd 74de b8bc
00000040: 411b e9bd dbed 9838 4b7b 503d 2100 bb3d
00000050: c94c b4bd b616 b2bd f644 7c3d ffbf 29be
00000060: 7839 01be cd9b b3bd ad47 18bd 5a50 00be
00000070: ec4f ba3d d03d 0cbe f21e 9c3d 3ae2 383e
00000080: 2e83 9cbd 400d 0dbe 6ac2 5e3e 0f52 6d3d
00000090: 979b 993d 23b6 eb3b 24cd 86bd 75fc 89bd
000000a0: 0b0c 08be 0984 1ebd 17a2 423d 88cb 24be
000000b0: 46cb 363e 93d7 633b bc74 8dbd 2ceb 53bd
000000c0: 2673 f5bc e5e1 a1bd c20e a83d bdc3 fc3c
000000d0: 4a07 f13d 6468 d83d 4001 93bd d819 4cbd
000000e0: 6cf1 29bd 97af 0e3e d07a 6e3c e47f 19bd
000000f0: 75c3 1cbe fdd0 cfbd d921 e33d 53e6 7cbd
00000100: 381d a2bd f854 133e e2d9 68be e7cf 9dbd
00000110: 317a 39bc bb73 08be 40aa 0b3e 325d 25bd
00000120: 65bb 0f3d 2e0a 40bd e890 a3be 8e28 c8bd
00000130: 3c5e 203e 3833 3a3d 5dcb d9bd c530 203e
00000140: 0648 20be ca89 62bd 6f58 ba3d f003 5a3e
00000150: 6536 10bb 363c 5b3d 8e76 11bd 5a3e 2d3d
00000160: 3e97 0c3e 5f4a eb3d d9f9 25be e641 0ebd
00000170: e601 1cbd b59e 1dbe ca5e e23d 4256 243e
00000180: c06f cbbd 5099 afba 821b a73d 8081 d73d
00000190: c307 873d a02f 513e 1a5d 8e3d b3f0 debd
000001a0: d0ba 29be 454e 163d 43d2 a43d c7ba b0bd
000001b0: 7773 18be c0fe 0d3e 63e9 5ebd ed40 57be
000001c0: b666 d53d 4139 83bc f3c5 153d 41b2 cbbd
000001d0: a88b e7bc 6916 28bd 8323 a8bc e569 a73d
000001e0: 7dda 1d3d 1a68 333c 1828 50bd 0a4f 5f3c
000001f0: 4513 f6bd 95e6 8fbd 81d7 223e c691 42be
00000200: f0a6 5b3d f7af 023e c975 e2bc 9a9e 33bd
00000210: c730 b53d 0ab2 1a3b 1455 f93c 8469 fd3d
00000220: ce00 8abd c407 b8bd 50b1 38bd 612c dc3c
00000230: 2b2b c83d 3e96 c5bd 83a8 24be 283b 90bb
00000240: 0c47 90bc 612d 8f3d c779 173e f3c0 1b3e
00000250: 8e5e 403d 7480 d9bc f26d 863d 631d afbc
00000260: f766 923d d9ce 043e 5770 dabd 50de 053d
00000270: 3ab7 cbbd 7490 f13c b3c1 b2bd 0db1 183e
00000280: 009d 5c3b 4ab9 50be 4f34 3c3e baaa 90bc
00000290: 6ee6 633c a044 053e cf2c 953d 7afb f33d
000002a0: 33e0 53be 325c 79bb d0e4 c33d 3590 42bd
000002b0: 01d7 db3c 9826 c3bd 49a6 c73d 2aa2 493d
000002c0: 85a6 043e e6d6 9bbb 310e 6b3d 7f9d 093e
000002d0: e9d4 6c3d b4a4 ac3a 167d d73d 70c9 0cbe
000002e0: d8c9 bcbd 17ab 6cbd d0ea e4bd f5dc a13c
000002f0: 2063 bbbb 3228 43be 06b4 493e 4d4e 233c
00000300: ec6f 2bbd 7083 fdbd f9fe afbd 4a67 b4bd
00000310: 6ab5 5b3d 58af f1bd f6bb f6bd bcd3 6ebe
00000320: d481 403e f1bd 363e f697 513d b2f2 743d
00000330: d4e7 14bc 43a5 313e 2c12 533e 1863 713c
00000340: 997e 2c3e 7ee6 083d 3c7f 2e3d 8d34 a63d
00000350: 9307 f33d 65e4 c63c 1d18 9f3d 791d 26be
00000360: d30b 4c3d 01b8 4eba 04db 8dbc 9fcb 233e
00000370: 6d94 78bd 8ee9 25bd e312 9cbd dc74 85be
00000380: 6eeb f23b 85e7 2f3e 94c9 21be 94da 4cbd
00000390: 8832 4b3d 5bfb 76bd 01e9 8f3c b119 63bd
000003a0: 7b26 02bd e765 fcbc 6bea bfbd c408 9d3d
000003b0: 1a8e 87bd c393 0a3e d903 adbb a146 033e
000003c0: 1e79 1f3d 0d45 d2bd 4ada 033d b4d3 98bd
000003d0: c144 8f3d 9739 a2bd 6ee5 a83d b71d d3bd
000003e0: 78e8 53bd c0cb 513d 32e4 eb3d d576 50be
000003f0: 40b2 243b a832 74bd e7e6 97be 516f adbd

layer3.bias f4 [64]
-0.11911659 -0.049999695 -0.0849728 -0.040980052 -0.08462866 -0.07842916 0.14944257 0.15939704
0.22627625 0.32016465 -0.0087317135 0.06492929 -0.0068426896 -0.10799968 -0.13484696 0.018953314
0.060602687 -0.09379516 -0.10847584 -0.15857612 0.03861346 -0.053757746 0.08602568 0.068556964
0.13177216 0.05515598 -0.098720826 0.066605106 -0.00042201325 -0.26635793 0.10550095 0.12078939
-0.14521906 -0.015552372 0.024923304 0.014570594 0.07822961 -0.07395868 -0.11256562 -0.06025725
-0.0424003 -0.2373253 0.22109064 0.04818469 0.015293252 0.12945725 0.28822264 -0.00785526
-0.06453018 0.1236245 0.043656956 0.009058518 -0.1087918 -0.22718088 -0.052581307 -0.12544131
0.022822173 0.083012454 0.14391509 -0.072259896 0.06807235 0.19833617 0.10516977 0.25824496
00000000: 66f3 f3bd 7bcc 4cbd 3806 aebd b3da 27bd
00000010: ca51 adbd 789f a0bd 7907 193e fa38 233e
00000020: f6b4 673e 9fec a33e 760f 0fbc a6f9 843d
00000030: a438 e0bb f02e ddbd 5215 0abe fb43 9b3c
00000040: 863a 783d ad17 c0bd 9528 debd c761 22be
00000050: 2629 1e3d 1531 5cbd 3b2e b03d 9867 8c3d
00000060: 48ef 063e 3deb 613d 252e cabd 4268 883d
00000070: a941 ddb9 1160 88be e210 d83d 6d60 f73d
00000080: 4eb4 14be 60cf 7ebc f52b cc3c 80b9 6e3c
00000090: d936 a03d a677 97bd ce88 e6bd 4ed0 76bd
000000a0: f0ab 2dbd 6705 73be 9665 623e 4f5d 453d
000000b0: 8c90 7a3c 7190 043e eb91 933e 59b3 00bc
000000c0: 6628 84bd d82e fd3d a3d1 323d 2e6a 143c
000000d0: 3cce debd 1ba2 68be 7f5f 57bd b073 00be
000000e0: 91f5 ba3c 6f02 aa3d 7a5e 133e fffc 93bd
000000f0: 8469 8b3d a318 4b3e 4063 d73d af38 843e

layer4.weight f4 [1, 64]
-0.27051264 -0.31138417 -0.3773144 0.22451724 -0.103741415 -0.12249832 0.24886072 0.77604383
0.14179559 0.32130754 -0.22002205 -0.124488644 0.17071882 0.008393969 -0.22340417 -0.11112184
0.82264113 -0.19220027 -0.30144078 0.32392251 0.03986649 -0.20429671 0.24047299 0.15475067
-0.7344912 0.4524639 -0.057047926 0.20382094 0.08762394 -0.26589575 0.30291417 0.16191946
0.082426734 0.16375001 -0.2249424 0.4952504 0.16431487 -0.17623249 -0.111039996 -0.35254076
-0.2155456 -0.09993422 0.13635997 0.15367678 0.18233131 0.11479056 0.69067514 0.19912647
-0.13990153 0.18156499 -0.36647254 -0.30068356 -0.318769 -0.038140368 -0.16228335 -0.26410514
0.3436637 0.034056216 0.27876934 -0.2866746 -0.16079175 0.19815566 0.18107034 0.1890752
00000000: a280 8abe bf6d 9fbe 5a2f c1be d9e7 653e
00000010: 6176 d4bd 66e0 fabd 58d5 7e3e cfaa 463f
00000020: dd32 113e 6c82 a43e 764d 61be e7f3 febd
00000030: ead0 2e3e dc86 093c 10c4 64be d993 e3bd
00000040: 9c98 523f 26d0 44be 7256 9abe 2cd9 a53e
00000050: 0b4b 233d 2833 51be 8d3e 763e f676 1e3e
00000060: 9e07 3cbf 59a9 e73e 16ab 69bd 70b6 503e
00000070: 2e74 b33d 7d23 88be 9117 9b3e 37ce 253e
00000080: 59cf a83d 15ae 273e 4d57 66be 7691 fd3e
00000090: 2842 283e 4a76 34be f068 e3bd 3980 b4be
000000a0: fcb7 5cbe 50aa ccbd f3a1 0b3e 725d 1d3e
000000b0: 0fb5 3a3e 5017 eb3d 16d0 303f cfe7 4b3e
000000c0: 5942 0fbe 2cec 393e 4aa2 bbbe 32f3 99be
000000d0: b135 a3be 1339 1cbd 9b2d 26be ca38 87be
000000e0: b0f4 af3e 887e 0b3d dbba 8e3e 03c7 92be
000000f0: 98a6 24be 51e9 4a3e 816a 393e ee9c 413e
